node {
  name: "global_step/initial_value"
  op: "Const"
  attr {
    key: "_output_shapes"
    value {
      list {
        shape {
        }
      }
    }
  }
  attr {
    key: "dtype"
    value {
      type: DT_INT32
    }
  }
  attr {
    key: "value"
    value {
      tensor {
        dtype: DT_INT32
        tensor_shape {
        }
        int_val: 0
      }
    }
  }
}
node {
  name: "global_step"
  op: "VariableV2"
  attr {
    key: "_output_shapes"
    value {
      list {
        shape {
        }
      }
    }
  }
  attr {
    key: "container"
    value {
      s: ""
    }
  }
  attr {
    key: "dtype"
    value {
      type: DT_INT32
    }
  }
  attr {
    key: "shape"
    value {
      shape {
      }
    }
  }
  attr {
    key: "shared_name"
    value {
      s: ""
    }
  }
}
node {
  name: "global_step/Assign"
  op: "Assign"
  input: "global_step"
  input: "global_step/initial_value"
  attr {
    key: "T"
    value {
      type: DT_INT32
    }
  }
  attr {
    key: "_class"
    value {
      list {
        s: "loc:@global_step"
      }
    }
  }
  attr {
    key: "_output_shapes"
    value {
      list {
        shape {
        }
      }
    }
  }
  attr {
    key: "use_locking"
    value {
      b: true
    }
  }
  attr {
    key: "validate_shape"
    value {
      b: true
    }
  }
}
node {
  name: "global_step/read"
  op: "Identity"
  input: "global_step"
  attr {
    key: "T"
    value {
      type: DT_INT32
    }
  }
  attr {
    key: "_class"
    value {
      list {
        s: "loc:@global_step"
      }
    }
  }
  attr {
    key: "_output_shapes"
    value {
      list {
        shape {
        }
      }
    }
  }
}
node {
  name: "add/y"
  op: "Const"
  attr {
    key: "_output_shapes"
    value {
      list {
        shape {
        }
      }
    }
  }
  attr {
    key: "dtype"
    value {
      type: DT_INT32
    }
  }
  attr {
    key: "value"
    value {
      tensor {
        dtype: DT_INT32
        tensor_shape {
        }
        int_val: 1
      }
    }
  }
}
node {
  name: "add"
  op: "Add"
  input: "global_step/read"
  input: "add/y"
  attr {
    key: "T"
    value {
      type: DT_INT32
    }
  }
  attr {
    key: "_output_shapes"
    value {
      list {
        shape {
        }
      }
    }
  }
}
node {
  name: "Assign"
  op: "Assign"
  input: "global_step"
  input: "add"
  attr {
    key: "T"
    value {
      type: DT_INT32
    }
  }
  attr {
    key: "_class"
    value {
      list {
        s: "loc:@global_step"
      }
    }
  }
  attr {
    key: "_output_shapes"
    value {
      list {
        shape {
        }
      }
    }
  }
  attr {
    key: "use_locking"
    value {
      b: true
    }
  }
  attr {
    key: "validate_shape"
    value {
      b: true
    }
  }
}
node {
  name: "is_training"
  op: "Placeholder"
  attr {
    key: "_output_shapes"
    value {
      list {
        shape {
        }
      }
    }
  }
  attr {
    key: "dtype"
    value {
      type: DT_BOOL
    }
  }
  attr {
    key: "shape"
    value {
      shape {
      }
    }
  }
}
node {
  name: "Const"
  op: "Const"
  device: "/device:CPU:0"
  attr {
    key: "_output_shapes"
    value {
      list {
        shape {
          dim {
            size: 4725
          }
        }
      }
    }
  }
  attr {
    key: "dtype"
    value {
      type: DT_STRING
    }
  }
  attr {
    key: "value"
    value {
      tensor {
        dtype: DT_STRING
        tensor_shape {
          dim {
            size: 4725
          }
        }
        string_val: "../data/Training/Run_0001/images/frame_04058.png"
        string_val: "../data/Training/Run_0001/images/frame_00670.png"
        string_val: "../data/Training/Run_0001/images/frame_04071.png"
        string_val: "../data/Training/Run_0001/images/frame_04004.png"
        string_val: "../data/Training/Run_0001/images/frame_02895.png"
        string_val: "../data/Training/Run_0001/images/frame_03970.png"
        string_val: "../data/Training/Run_0001/images/frame_02194.png"
        string_val: "../data/Training/Run_0001/images/frame_01597.png"
        string_val: "../data/Training/Run_0001/images/frame_02692.png"
        string_val: "../data/Training/Run_0001/images/frame_00023.png"
        string_val: "../data/Training/Run_0001/images/frame_03768.png"
        string_val: "../data/Training/Run_0001/images/frame_01661.png"
        string_val: "../data/Training/Run_0001/images/frame_00613.png"
        string_val: "../data/Training/Run_0001/images/frame_03709.png"
        string_val: "../data/Training/Run_0001/images/frame_04540.png"
        string_val: "../data/Training/Run_0001/images/frame_02267.png"
        string_val: "../data/Training/Run_0001/images/frame_04376.png"
        string_val: "../data/Training/Run_0001/images/frame_03553.png"
        string_val: "../data/Training/Run_0001/images/frame_03130.png"
        string_val: "../data/Training/Run_0001/images/frame_02824.png"
        string_val: "../data/Training/Run_0001/images/frame_01006.png"
        string_val: "../data/Training/Run_0001/images/frame_04012.png"
        string_val: "../data/Training/Run_0001/images/frame_02460.png"
        string_val: "../data/Training/Run_0001/images/frame_02380.png"
        string_val: "../data/Training/Run_0001/images/frame_04039.png"
        string_val: "../data/Training/Run_0001/images/frame_04034.png"
        string_val: "../data/Training/Run_0001/images/frame_01796.png"
        string_val: "../data/Training/Run_0001/images/frame_02044.png"
        string_val: "../data/Training/Run_0001/images/frame_02443.png"
        string_val: "../data/Training/Run_0001/images/frame_01203.png"
        string_val: "../data/Training/Run_0001/images/frame_04667.png"
        string_val: "../data/Training/Run_0001/images/frame_00921.png"
        string_val: "../data/Training/Run_0001/images/frame_01379.png"
        string_val: "../data/Training/Run_0001/images/frame_03190.png"
        string_val: "../data/Training/Run_0001/images/frame_01647.png"
        string_val: "../data/Training/Run_0001/images/frame_01968.png"
        string_val: "../data/Training/Run_0001/images/frame_01108.png"
        string_val: "../data/Training/Run_0001/images/frame_01537.png"
        string_val: "../data/Training/Run_0001/images/frame_00404.png"
        string_val: "../data/Training/Run_0001/images/frame_01276.png"
        string_val: "../data/Training/Run_0001/images/frame_04275.png"
        string_val: "../data/Training/Run_0001/images/frame_01463.png"
        string_val: "../data/Training/Run_0001/images/frame_03208.png"
        string_val: "../data/Training/Run_0001/images/frame_04429.png"
        string_val: "../data/Training/Run_0001/images/frame_04293.png"
        string_val: "../data/Training/Run_0001/images/frame_02876.png"
        string_val: "../data/Training/Run_0001/images/frame_02783.png"
        string_val: "../data/Training/Run_0001/images/frame_00861.png"
        string_val: "../data/Training/Run_0001/images/frame_00274.png"
        string_val: "../data/Training/Run_0001/images/frame_01002.png"
        string_val: "../data/Training/Run_0001/images/frame_01836.png"
        string_val: "../data/Training/Run_0001/images/frame_00080.png"
        string_val: "../data/Training/Run_0001/images/frame_00554.png"
        string_val: "../data/Training/Run_0001/images/frame_02753.png"
        string_val: "../data/Training/Run_0001/images/frame_04544.png"
        string_val: "../data/Training/Run_0001/images/frame_01927.png"
        string_val: "../data/Training/Run_0001/images/frame_04683.png"
        string_val: "../data/Training/Run_0001/images/frame_00184.png"
        string_val: "../data/Training/Run_0001/images/frame_01550.png"
        string_val: "../data/Training/Run_0001/images/frame_01520.png"
        string_val: "../data/Training/Run_0001/images/frame_02333.png"
        string_val: "../data/Training/Run_0001/images/frame_03144.png"
        string_val: "../data/Training/Run_0001/images/frame_00668.png"
        string_val: "../data/Training/Run_0001/images/frame_01518.png"
        string_val: "../data/Training/Run_0001/images/frame_03296.png"
        string_val: "../data/Training/Run_0001/images/frame_03538.png"
        string_val: "../data/Training/Run_0001/images/frame_03575.png"
        string_val: "../data/Training/Run_0001/images/frame_01066.png"
        string_val: "../data/Training/Run_0001/images/frame_00467.png"
        string_val: "../data/Training/Run_0001/images/frame_02631.png"
        string_val: "../data/Training/Run_0001/images/frame_01677.png"
        string_val: "../data/Training/Run_0001/images/frame_04526.png"
        string_val: "../data/Training/Run_0001/images/frame_04404.png"
        string_val: "../data/Training/Run_0001/images/frame_03772.png"
        string_val: "../data/Training/Run_0001/images/frame_03390.png"
        string_val: "../data/Training/Run_0001/images/frame_01453.png"
        string_val: "../data/Training/Run_0001/images/frame_04386.png"
        string_val: "../data/Training/Run_0001/images/frame_03448.png"
        string_val: "../data/Training/Run_0001/images/frame_00489.png"
        string_val: "../data/Training/Run_0001/images/frame_03419.png"
        string_val: "../data/Training/Run_0001/images/frame_04377.png"
        string_val: "../data/Training/Run_0001/images/frame_02680.png"
        string_val: "../data/Training/Run_0001/images/frame_03224.png"
        string_val: "../data/Training/Run_0001/images/frame_03330.png"
        string_val: "../data/Training/Run_0001/images/frame_00700.png"
        string_val: "../data/Training/Run_0001/images/frame_00880.png"
        string_val: "../data/Training/Run_0001/images/frame_02133.png"
        string_val: "../data/Training/Run_0001/images/frame_03354.png"
        string_val: "../data/Training/Run_0001/images/frame_03491.png"
        string_val: "../data/Training/Run_0001/images/frame_03884.png"
        string_val: "../data/Training/Run_0001/images/frame_01992.png"
        string_val: "../data/Training/Run_0001/images/frame_01085.png"
        string_val: "../data/Training/Run_0001/images/frame_01708.png"
        string_val: "../data/Training/Run_0001/images/frame_00935.png"
        string_val: "../data/Training/Run_0001/images/frame_03986.png"
        string_val: "../data/Training/Run_0001/images/frame_01210.png"
        string_val: "../data/Training/Run_0001/images/frame_03486.png"
        string_val: "../data/Training/Run_0001/images/frame_02424.png"
        string_val: "../data/Training/Run_0001/images/frame_04191.png"
        string_val: "../data/Training/Run_0001/images/frame_00123.png"
        string_val: "../data/Training/Run_0001/images/frame_02255.png"
        string_val: "../data/Training/Run_0001/images/frame_03793.png"
        string_val: "../data/Training/Run_0001/images/frame_03151.png"
        string_val: "../data/Training/Run_0001/images/frame_03692.png"
        string_val: "../data/Training/Run_0001/images/frame_04356.png"
        string_val: "../data/Training/Run_0001/images/frame_01694.png"
        string_val: "../data/Training/Run_0001/images/frame_03177.png"
        string_val: "../data/Training/Run_0001/images/frame_01030.png"
        string_val: "../data/Training/Run_0001/images/frame_02416.png"
        string_val: "../data/Training/Run_0001/images/frame_01365.png"
        string_val: "../data/Training/Run_0001/images/frame_02469.png"
        string_val: "../data/Training/Run_0001/images/frame_01286.png"
        string_val: "../data/Training/Run_0001/images/frame_01767.png"
        string_val: "../data/Training/Run_0001/images/frame_00212.png"
        string_val: "../data/Training/Run_0001/images/frame_02264.png"
        string_val: "../data/Training/Run_0001/images/frame_04060.png"
        string_val: "../data/Training/Run_0001/images/frame_03461.png"
        string_val: "../data/Training/Run_0001/images/frame_03456.png"
        string_val: "../data/Training/Run_0001/images/frame_02862.png"
        string_val: "../data/Training/Run_0001/images/frame_02493.png"
        string_val: "../data/Training/Run_0001/images/frame_04101.png"
        string_val: "../data/Training/Run_0001/images/frame_04352.png"
        string_val: "../data/Training/Run_0001/images/frame_03145.png"
        string_val: "../data/Training/Run_0001/images/frame_00959.png"
        string_val: "../data/Training/Run_0001/images/frame_03659.png"
        string_val: "../data/Training/Run_0001/images/frame_01606.png"
        string_val: "../data/Training/Run_0001/images/frame_00894.png"
        string_val: "../data/Training/Run_0001/images/frame_00582.png"
        string_val: "../data/Training/Run_0001/images/frame_04635.png"
        string_val: "../data/Training/Run_0001/images/frame_03858.png"
        string_val: "../data/Training/Run_0001/images/frame_04131.png"
        string_val: "../data/Training/Run_0001/images/frame_04713.png"
        string_val: "../data/Training/Run_0001/images/frame_03916.png"
        string_val: "../data/Training/Run_0001/images/frame_03410.png"
        string_val: "../data/Training/Run_0001/images/frame_03714.png"
        string_val: "../data/Training/Run_0001/images/frame_02757.png"
        string_val: "../data/Training/Run_0001/images/frame_00026.png"
        string_val: "../data/Training/Run_0001/images/frame_03317.png"
        string_val: "../data/Training/Run_0001/images/frame_04543.png"
        string_val: "../data/Training/Run_0001/images/frame_03386.png"
        string_val: "../data/Training/Run_0001/images/frame_02841.png"
        string_val: "../data/Training/Run_0001/images/frame_01408.png"
        string_val: "../data/Training/Run_0001/images/frame_02694.png"
        string_val: "../data/Training/Run_0001/images/frame_01279.png"
        string_val: "../data/Training/Run_0001/images/frame_00809.png"
        string_val: "../data/Training/Run_0001/images/frame_03601.png"
        string_val: "../data/Training/Run_0001/images/frame_01805.png"
        string_val: "../data/Training/Run_0001/images/frame_00759.png"
        string_val: "../data/Training/Run_0001/images/frame_02322.png"
        string_val: "../data/Training/Run_0001/images/frame_01233.png"
        string_val: "../data/Training/Run_0001/images/frame_03082.png"
        string_val: "../data/Training/Run_0001/images/frame_02369.png"
        string_val: "../data/Training/Run_0001/images/frame_02808.png"
        string_val: "../data/Training/Run_0001/images/frame_01709.png"
        string_val: "../data/Training/Run_0001/images/frame_01564.png"
        string_val: "../data/Training/Run_0001/images/frame_02483.png"
        string_val: "../data/Training/Run_0001/images/frame_00924.png"
        string_val: "../data/Training/Run_0001/images/frame_03618.png"
        string_val: "../data/Training/Run_0001/images/frame_00203.png"
        string_val: "../data/Training/Run_0001/images/frame_00992.png"
        string_val: "../data/Training/Run_0001/images/frame_02605.png"
        string_val: "../data/Training/Run_0001/images/frame_03027.png"
        string_val: "../data/Training/Run_0001/images/frame_04530.png"
        string_val: "../data/Training/Run_0001/images/frame_00529.png"
        string_val: "../data/Training/Run_0001/images/frame_02869.png"
        string_val: "../data/Training/Run_0001/images/frame_00420.png"
        string_val: "../data/Training/Run_0001/images/frame_03935.png"
        string_val: "../data/Training/Run_0001/images/frame_00380.png"
        string_val: "../data/Training/Run_0001/images/frame_02014.png"
        string_val: "../data/Training/Run_0001/images/frame_00671.png"
        string_val: "../data/Training/Run_0001/images/frame_00943.png"
        string_val: "../data/Training/Run_0001/images/frame_01521.png"
        string_val: "../data/Training/Run_0001/images/frame_00588.png"
        string_val: "../data/Training/Run_0001/images/frame_04349.png"
        string_val: "../data/Training/Run_0001/images/frame_02921.png"
        string_val: "../data/Training/Run_0001/images/frame_02515.png"
        string_val: "../data/Training/Run_0001/images/frame_03684.png"
        string_val: "../data/Training/Run_0001/images/frame_03893.png"
        string_val: "../data/Training/Run_0001/images/frame_00832.png"
        string_val: "../data/Training/Run_0001/images/frame_00295.png"
        string_val: "../data/Training/Run_0001/images/frame_04679.png"
        string_val: "../data/Training/Run_0001/images/frame_01490.png"
        string_val: "../data/Training/Run_0001/images/frame_00308.png"
        string_val: "../data/Training/Run_0001/images/frame_02393.png"
        string_val: "../data/Training/Run_0001/images/frame_02568.png"
        string_val: "../data/Training/Run_0001/images/frame_02122.png"
        string_val: "../data/Training/Run_0001/images/frame_00526.png"
        string_val: "../data/Training/Run_0001/images/frame_03070.png"
        string_val: "../data/Training/Run_0001/images/frame_01189.png"
        string_val: "../data/Training/Run_0001/images/frame_00411.png"
        string_val: "../data/Training/Run_0001/images/frame_01284.png"
        string_val: "../data/Training/Run_0001/images/frame_02555.png"
        string_val: "../data/Training/Run_0001/images/frame_02254.png"
        string_val: "../data/Training/Run_0001/images/frame_00392.png"
        string_val: "../data/Training/Run_0001/images/frame_02528.png"
        string_val: "../data/Training/Run_0001/images/frame_01538.png"
        string_val: "../data/Training/Run_0001/images/frame_02301.png"
        string_val: "../data/Training/Run_0001/images/frame_02128.png"
        string_val: "../data/Training/Run_0001/images/frame_01936.png"
        string_val: "../data/Training/Run_0001/images/frame_02181.png"
        string_val: "../data/Training/Run_0001/images/frame_01256.png"
        string_val: "../data/Training/Run_0001/images/frame_04553.png"
        string_val: "../data/Training/Run_0001/images/frame_03878.png"
        string_val: "../data/Training/Run_0001/images/frame_01088.png"
        string_val: "../data/Training/Run_0001/images/frame_02457.png"
        string_val: "../data/Training/Run_0001/images/frame_04334.png"
        string_val: "../data/Training/Run_0001/images/frame_01316.png"
        string_val: "../data/Training/Run_0001/images/frame_02896.png"
        string_val: "../data/Training/Run_0001/images/frame_00298.png"
        string_val: "../data/Training/Run_0001/images/frame_04310.png"
        string_val: "../data/Training/Run_0001/images/frame_04057.png"
        string_val: "../data/Training/Run_0001/images/frame_01221.png"
        string_val: "../data/Training/Run_0001/images/frame_00156.png"
        string_val: "../data/Training/Run_0001/images/frame_01405.png"
        string_val: "../data/Training/Run_0001/images/frame_00814.png"
        string_val: "../data/Training/Run_0001/images/frame_02429.png"
        string_val: "../data/Training/Run_0001/images/frame_04609.png"
        string_val: "../data/Training/Run_0001/images/frame_03222.png"
        string_val: "../data/Training/Run_0001/images/frame_00250.png"
        string_val: "../data/Training/Run_0001/images/frame_00074.png"
        string_val: "../data/Training/Run_0001/images/frame_02937.png"
        string_val: "../data/Training/Run_0001/images/frame_04379.png"
        string_val: "../data/Training/Run_0001/images/frame_00436.png"
        string_val: "../data/Training/Run_0001/images/frame_02243.png"
        string_val: "../data/Training/Run_0001/images/frame_02059.png"
        string_val: "../data/Training/Run_0001/images/frame_03299.png"
        string_val: "../data/Training/Run_0001/images/frame_02982.png"
        string_val: "../data/Training/Run_0001/images/frame_03520.png"
        string_val: "../data/Training/Run_0001/images/frame_01037.png"
        string_val: "../data/Training/Run_0001/images/frame_03803.png"
        string_val: "../data/Training/Run_0001/images/frame_03861.png"
        string_val: "../data/Training/Run_0001/images/frame_02679.png"
        string_val: "../data/Training/Run_0001/images/frame_02068.png"
        string_val: "../data/Training/Run_0001/images/frame_00356.png"
        string_val: "../data/Training/Run_0001/images/frame_00725.png"
        string_val: "../data/Training/Run_0001/images/frame_04339.png"
        string_val: "../data/Training/Run_0001/images/frame_03436.png"
        string_val: "../data/Training/Run_0001/images/frame_02558.png"
        string_val: "../data/Training/Run_0001/images/frame_02196.png"
        string_val: "../data/Training/Run_0001/images/frame_00472.png"
        string_val: "../data/Training/Run_0001/images/frame_02146.png"
        string_val: "../data/Training/Run_0001/images/frame_01896.png"
        string_val: "../data/Training/Run_0001/images/frame_04138.png"
        string_val: "../data/Training/Run_0001/images/frame_02164.png"
        string_val: "../data/Training/Run_0001/images/frame_04415.png"
        string_val: "../data/Training/Run_0001/images/frame_03895.png"
        string_val: "../data/Training/Run_0001/images/frame_00354.png"
        string_val: "../data/Training/Run_0001/images/frame_03695.png"
        string_val: "../data/Training/Run_0001/images/frame_00260.png"
        string_val: "../data/Training/Run_0001/images/frame_02526.png"
        string_val: "../data/Training/Run_0001/images/frame_02274.png"
        string_val: "../data/Training/Run_0001/images/frame_00609.png"
        string_val: "../data/Training/Run_0001/images/frame_02988.png"
        string_val: "../data/Training/Run_0001/images/frame_00815.png"
        string_val: "../data/Training/Run_0001/images/frame_03394.png"
        string_val: "../data/Training/Run_0001/images/frame_04272.png"
        string_val: "../data/Training/Run_0001/images/frame_01151.png"
        string_val: "../data/Training/Run_0001/images/frame_01985.png"
        string_val: "../data/Training/Run_0001/images/frame_02446.png"
        string_val: "../data/Training/Run_0001/images/frame_04412.png"
        string_val: "../data/Training/Run_0001/images/frame_00973.png"
        string_val: "../data/Training/Run_0001/images/frame_04515.png"
        string_val: "../data/Training/Run_0001/images/frame_00580.png"
        string_val: "../data/Training/Run_0001/images/frame_01886.png"
        string_val: "../data/Training/Run_0001/images/frame_01200.png"
        string_val: "../data/Training/Run_0001/images/frame_00355.png"
        string_val: "../data/Training/Run_0001/images/frame_01347.png"
        string_val: "../data/Training/Run_0001/images/frame_01007.png"
        string_val: "../data/Training/Run_0001/images/frame_04567.png"
        string_val: "../data/Training/Run_0001/images/frame_00601.png"
        string_val: "../data/Training/Run_0001/images/frame_03476.png"
        string_val: "../data/Training/Run_0001/images/frame_00699.png"
        string_val: "../data/Training/Run_0001/images/frame_04661.png"
        string_val: "../data/Training/Run_0001/images/frame_01809.png"
        string_val: "../data/Training/Run_0001/images/frame_00798.png"
        string_val: "../data/Training/Run_0001/images/frame_03115.png"
        string_val: "../data/Training/Run_0001/images/frame_01766.png"
        string_val: "../data/Training/Run_0001/images/frame_03326.png"
        string_val: "../data/Training/Run_0001/images/frame_04106.png"
        string_val: "../data/Training/Run_0001/images/frame_01494.png"
        string_val: "../data/Training/Run_0001/images/frame_01358.png"
        string_val: "../data/Training/Run_0001/images/frame_01654.png"
        string_val: "../data/Training/Run_0001/images/frame_02073.png"
        string_val: "../data/Training/Run_0001/images/frame_01950.png"
        string_val: "../data/Training/Run_0001/images/frame_03069.png"
        string_val: "../data/Training/Run_0001/images/frame_02580.png"
        string_val: "../data/Training/Run_0001/images/frame_00569.png"
        string_val: "../data/Training/Run_0001/images/frame_01527.png"
        string_val: "../data/Training/Run_0001/images/frame_00979.png"
        string_val: "../data/Training/Run_0001/images/frame_01475.png"
        string_val: "../data/Training/Run_0001/images/frame_02784.png"
        string_val: "../data/Training/Run_0001/images/frame_03716.png"
        string_val: "../data/Training/Run_0001/images/frame_03504.png"
        string_val: "../data/Training/Run_0001/images/frame_03900.png"
        string_val: "../data/Training/Run_0001/images/frame_02233.png"
        string_val: "../data/Training/Run_0001/images/frame_00202.png"
        string_val: "../data/Training/Run_0001/images/frame_01338.png"
        string_val: "../data/Training/Run_0001/images/frame_01517.png"
        string_val: "../data/Training/Run_0001/images/frame_01961.png"
        string_val: "../data/Training/Run_0001/images/frame_03464.png"
        string_val: "../data/Training/Run_0001/images/frame_04436.png"
        string_val: "../data/Training/Run_0001/images/frame_03227.png"
        string_val: "../data/Training/Run_0001/images/frame_02067.png"
        string_val: "../data/Training/Run_0001/images/frame_02452.png"
        string_val: "../data/Training/Run_0001/images/frame_01402.png"
        string_val: "../data/Training/Run_0001/images/frame_01922.png"
        string_val: "../data/Training/Run_0001/images/frame_01214.png"
        string_val: "../data/Training/Run_0001/images/frame_00486.png"
        string_val: "../data/Training/Run_0001/images/frame_04699.png"
        string_val: "../data/Training/Run_0001/images/frame_02428.png"
        string_val: "../data/Training/Run_0001/images/frame_03818.png"
        string_val: "../data/Training/Run_0001/images/frame_01578.png"
        string_val: "../data/Training/Run_0001/images/frame_00413.png"
        string_val: "../data/Training/Run_0001/images/frame_00922.png"
        string_val: "../data/Training/Run_0001/images/frame_01737.png"
        string_val: "../data/Training/Run_0001/images/frame_03746.png"
        string_val: "../data/Training/Run_0001/images/frame_01980.png"
        string_val: "../data/Training/Run_0001/images/frame_01713.png"
        string_val: "../data/Training/Run_0001/images/frame_03959.png"
        string_val: "../data/Training/Run_0001/images/frame_00314.png"
        string_val: "../data/Training/Run_0001/images/frame_04516.png"
        string_val: "../data/Training/Run_0001/images/frame_00765.png"
        string_val: "../data/Training/Run_0001/images/frame_04040.png"
        string_val: "../data/Training/Run_0001/images/frame_01487.png"
        string_val: "../data/Training/Run_0001/images/frame_03428.png"
        string_val: "../data/Training/Run_0001/images/frame_01046.png"
        string_val: "../data/Training/Run_0001/images/frame_03978.png"
        string_val: "../data/Training/Run_0001/images/frame_03088.png"
        string_val: "../data/Training/Run_0001/images/frame_00397.png"
        string_val: "../data/Training/Run_0001/images/frame_04723.png"
        string_val: "../data/Training/Run_0001/images/frame_01472.png"
        string_val: "../data/Training/Run_0001/images/frame_00201.png"
        string_val: "../data/Training/Run_0001/images/frame_04074.png"
        string_val: "../data/Training/Run_0001/images/frame_03964.png"
        string_val: "../data/Training/Run_0001/images/frame_00793.png"
        string_val: "../data/Training/Run_0001/images/frame_01775.png"
        string_val: "../data/Training/Run_0001/images/frame_03648.png"
        string_val: "../data/Training/Run_0001/images/frame_01012.png"
        string_val: "../data/Training/Run_0001/images/frame_02083.png"
        string_val: "../data/Training/Run_0001/images/frame_02703.png"
        string_val: "../data/Training/Run_0001/images/frame_03192.png"
        string_val: "../data/Training/Run_0001/images/frame_01176.png"
        string_val: "../data/Training/Run_0001/images/frame_00015.png"
        string_val: "../data/Training/Run_0001/images/frame_01697.png"
        string_val: "../data/Training/Run_0001/images/frame_03248.png"
        string_val: "../data/Training/Run_0001/images/frame_02063.png"
        string_val: "../data/Training/Run_0001/images/frame_02399.png"
        string_val: "../data/Training/Run_0001/images/frame_00789.png"
        string_val: "../data/Training/Run_0001/images/frame_04249.png"
        string_val: "../data/Training/Run_0001/images/frame_01998.png"
        string_val: "../data/Training/Run_0001/images/frame_02507.png"
        string_val: "../data/Training/Run_0001/images/frame_00741.png"
        string_val: "../data/Training/Run_0001/images/frame_01272.png"
        string_val: "../data/Training/Run_0001/images/frame_04168.png"
        string_val: "../data/Training/Run_0001/images/frame_03093.png"
        string_val: "../data/Training/Run_0001/images/frame_02746.png"
        string_val: "../data/Training/Run_0001/images/frame_03527.png"
        string_val: "../data/Training/Run_0001/images/frame_00534.png"
        string_val: "../data/Training/Run_0001/images/frame_03550.png"
        string_val: "../data/Training/Run_0001/images/frame_00371.png"
        string_val: "../data/Training/Run_0001/images/frame_04519.png"
        string_val: "../data/Training/Run_0001/images/frame_00216.png"
        string_val: "../data/Training/Run_0001/images/frame_01053.png"
        string_val: "../data/Training/Run_0001/images/frame_01328.png"
        string_val: "../data/Training/Run_0001/images/frame_02681.png"
        string_val: "../data/Training/Run_0001/images/frame_01657.png"
        string_val: "../data/Training/Run_0001/images/frame_03017.png"
        string_val: "../data/Training/Run_0001/images/frame_02471.png"
        string_val: "../data/Training/Run_0001/images/frame_02990.png"
        string_val: "../data/Training/Run_0001/images/frame_01156.png"
        string_val: "../data/Training/Run_0001/images/frame_00928.png"
        string_val: "../data/Training/Run_0001/images/frame_00933.png"
        string_val: "../data/Training/Run_0001/images/frame_01544.png"
        string_val: "../data/Training/Run_0001/images/frame_04277.png"
        string_val: "../data/Training/Run_0001/images/frame_04705.png"
        string_val: "../data/Training/Run_0001/images/frame_02423.png"
        string_val: "../data/Training/Run_0001/images/frame_00179.png"
        string_val: "../data/Training/Run_0001/images/frame_02734.png"
        string_val: "../data/Training/Run_0001/images/frame_00459.png"
        string_val: "../data/Training/Run_0001/images/frame_00563.png"
        string_val: "../data/Training/Run_0001/images/frame_02898.png"
        string_val: "../data/Training/Run_0001/images/frame_04174.png"
        string_val: "../data/Training/Run_0001/images/frame_04038.png"
        string_val: "../data/Training/Run_0001/images/frame_02538.png"
        string_val: "../data/Training/Run_0001/images/frame_00077.png"
        string_val: "../data/Training/Run_0001/images/frame_01178.png"
        string_val: "../data/Training/Run_0001/images/frame_04235.png"
        string_val: "../data/Training/Run_0001/images/frame_04401.png"
        string_val: "../data/Training/Run_0001/images/frame_04456.png"
        string_val: "../data/Training/Run_0001/images/frame_00906.png"
        string_val: "../data/Training/Run_0001/images/frame_02886.png"
        string_val: "../data/Training/Run_0001/images/frame_01729.png"
        string_val: "../data/Training/Run_0001/images/frame_03418.png"
        string_val: "../data/Training/Run_0001/images/frame_03686.png"
        string_val: "../data/Training/Run_0001/images/frame_01248.png"
        string_val: "../data/Training/Run_0001/images/frame_00860.png"
        string_val: "../data/Training/Run_0001/images/frame_04048.png"
        string_val: "../data/Training/Run_0001/images/frame_02630.png"
        string_val: "../data/Training/Run_0001/images/frame_03245.png"
        string_val: "../data/Training/Run_0001/images/frame_02458.png"
        string_val: "../data/Training/Run_0001/images/frame_02028.png"
        string_val: "../data/Training/Run_0001/images/frame_02923.png"
        string_val: "../data/Training/Run_0001/images/frame_03644.png"
        string_val: "../data/Training/Run_0001/images/frame_04675.png"
        string_val: "../data/Training/Run_0001/images/frame_03269.png"
        string_val: "../data/Training/Run_0001/images/frame_04611.png"
        string_val: "../data/Training/Run_0001/images/frame_04157.png"
        string_val: "../data/Training/Run_0001/images/frame_00757.png"
        string_val: "../data/Training/Run_0001/images/frame_01413.png"
        string_val: "../data/Training/Run_0001/images/frame_02437.png"
        string_val: "../data/Training/Run_0001/images/frame_03275.png"
        string_val: "../data/Training/Run_0001/images/frame_04325.png"
        string_val: "../data/Training/Run_0001/images/frame_01744.png"
        string_val: "../data/Training/Run_0001/images/frame_04190.png"
        string_val: "../data/Training/Run_0001/images/frame_00445.png"
        string_val: "../data/Training/Run_0001/images/frame_00719.png"
        string_val: "../data/Training/Run_0001/images/frame_04636.png"
        string_val: "../data/Training/Run_0001/images/frame_00175.png"
        string_val: "../data/Training/Run_0001/images/frame_04067.png"
        string_val: "../data/Training/Run_0001/images/frame_04344.png"
        string_val: "../data/Training/Run_0001/images/frame_00360.png"
        string_val: "../data/Training/Run_0001/images/frame_01660.png"
        string_val: "../data/Training/Run_0001/images/frame_00521.png"
        string_val: "../data/Training/Run_0001/images/frame_02381.png"
        string_val: "../data/Training/Run_0001/images/frame_00451.png"
        string_val: "../data/Training/Run_0001/images/frame_01070.png"
        string_val: "../data/Training/Run_0001/images/frame_02539.png"
        string_val: "../data/Training/Run_0001/images/frame_03722.png"
        string_val: "../data/Training/Run_0001/images/frame_00362.png"
        string_val: "../data/Training/Run_0001/images/frame_03019.png"
        string_val: "../data/Training/Run_0001/images/frame_02597.png"
        string_val: "../data/Training/Run_0001/images/frame_02807.png"
        string_val: "../data/Training/Run_0001/images/frame_02600.png"
        string_val: "../data/Training/Run_0001/images/frame_01240.png"
        string_val: "../data/Training/Run_0001/images/frame_03465.png"
        string_val: "../data/Training/Run_0001/images/frame_01383.png"
        string_val: "../data/Training/Run_0001/images/frame_01722.png"
        string_val: "../data/Training/Run_0001/images/frame_01420.png"
        string_val: "../data/Training/Run_0001/images/frame_01587.png"
        string_val: "../data/Training/Run_0001/images/frame_01895.png"
        string_val: "../data/Training/Run_0001/images/frame_02546.png"
        string_val: "../data/Training/Run_0001/images/frame_03226.png"
        string_val: "../data/Training/Run_0001/images/frame_03111.png"
        string_val: "../data/Training/Run_0001/images/frame_03633.png"
        string_val: "../data/Training/Run_0001/images/frame_03931.png"
        string_val: "../data/Training/Run_0001/images/frame_01893.png"
        string_val: "../data/Training/Run_0001/images/frame_01921.png"
        string_val: "../data/Training/Run_0001/images/frame_02197.png"
        string_val: "../data/Training/Run_0001/images/frame_00133.png"
        string_val: "../data/Training/Run_0001/images/frame_03442.png"
        string_val: "../data/Training/Run_0001/images/frame_02415.png"
        string_val: "../data/Training/Run_0001/images/frame_03393.png"
        string_val: "../data/Training/Run_0001/images/frame_04561.png"
        string_val: "../data/Training/Run_0001/images/frame_02997.png"
        string_val: "../data/Training/Run_0001/images/frame_04361.png"
        string_val: "../data/Training/Run_0001/images/frame_00485.png"
        string_val: "../data/Training/Run_0001/images/frame_00989.png"
        string_val: "../data/Training/Run_0001/images/frame_03452.png"
        string_val: "../data/Training/Run_0001/images/frame_04330.png"
        string_val: "../data/Training/Run_0001/images/frame_00669.png"
        string_val: "../data/Training/Run_0001/images/frame_02368.png"
        string_val: "../data/Training/Run_0001/images/frame_02553.png"
        string_val: "../data/Training/Run_0001/images/frame_03013.png"
        string_val: "../data/Training/Run_0001/images/frame_00422.png"
        string_val: "../data/Training/Run_0001/images/frame_02730.png"
        string_val: "../data/Training/Run_0001/images/frame_01302.png"
        string_val: "../data/Training/Run_0001/images/frame_03193.png"
        string_val: "../data/Training/Run_0001/images/frame_00790.png"
        string_val: "../data/Training/Run_0001/images/frame_03753.png"
        string_val: "../data/Training/Run_0001/images/frame_03540.png"
        string_val: "../data/Training/Run_0001/images/frame_04492.png"
        string_val: "../data/Training/Run_0001/images/frame_02187.png"
        string_val: "../data/Training/Run_0001/images/frame_04237.png"
        string_val: "../data/Training/Run_0001/images/frame_01926.png"
        string_val: "../data/Training/Run_0001/images/frame_01471.png"
        string_val: "../data/Training/Run_0001/images/frame_01342.png"
        string_val: "../data/Training/Run_0001/images/frame_02775.png"
        string_val: "../data/Training/Run_0001/images/frame_03897.png"
        string_val: "../data/Training/Run_0001/images/frame_02566.png"
        string_val: "../data/Training/Run_0001/images/frame_03806.png"
        string_val: "../data/Training/Run_0001/images/frame_01894.png"
        string_val: "../data/Training/Run_0001/images/frame_01191.png"
        string_val: "../data/Training/Run_0001/images/frame_04593.png"
        string_val: "../data/Training/Run_0001/images/frame_02842.png"
        string_val: "../data/Training/Run_0001/images/frame_02854.png"
        string_val: "../data/Training/Run_0001/images/frame_00766.png"
        string_val: "../data/Training/Run_0001/images/frame_01983.png"
        string_val: "../data/Training/Run_0001/images/frame_03967.png"
        string_val: "../data/Training/Run_0001/images/frame_03006.png"
        string_val: "../data/Training/Run_0001/images/frame_03077.png"
        string_val: "../data/Training/Run_0001/images/frame_04551.png"
        string_val: "../data/Training/Run_0001/images/frame_02752.png"
        string_val: "../data/Training/Run_0001/images/frame_02652.png"
        string_val: "../data/Training/Run_0001/images/frame_01692.png"
        string_val: "../data/Training/Run_0001/images/frame_00622.png"
        string_val: "../data/Training/Run_0001/images/frame_00672.png"
        string_val: "../data/Training/Run_0001/images/frame_01398.png"
        string_val: "../data/Training/Run_0001/images/frame_00873.png"
        string_val: "../data/Training/Run_0001/images/frame_02124.png"
        string_val: "../data/Training/Run_0001/images/frame_03402.png"
        string_val: "../data/Training/Run_0001/images/frame_04420.png"
        string_val: "../data/Training/Run_0001/images/frame_03483.png"
        string_val: "../data/Training/Run_0001/images/frame_01169.png"
        string_val: "../data/Training/Run_0001/images/frame_00513.png"
        string_val: "../data/Training/Run_0001/images/frame_04056.png"
        string_val: "../data/Training/Run_0001/images/frame_04396.png"
        string_val: "../data/Training/Run_0001/images/frame_01350.png"
        string_val: "../data/Training/Run_0001/images/frame_00870.png"
        string_val: "../data/Training/Run_0001/images/frame_00441.png"
        string_val: "../data/Training/Run_0001/images/frame_00127.png"
        string_val: "../data/Training/Run_0001/images/frame_02071.png"
        string_val: "../data/Training/Run_0001/images/frame_02722.png"
        string_val: "../data/Training/Run_0001/images/frame_00386.png"
        string_val: "../data/Training/Run_0001/images/frame_00275.png"
        string_val: "../data/Training/Run_0001/images/frame_01361.png"
        string_val: "../data/Training/Run_0001/images/frame_00642.png"
        string_val: "../data/Training/Run_0001/images/frame_01909.png"
        string_val: "../data/Training/Run_0001/images/frame_00137.png"
        string_val: "../data/Training/Run_0001/images/frame_00357.png"
        string_val: "../data/Training/Run_0001/images/frame_03790.png"
        string_val: "../data/Training/Run_0001/images/frame_01310.png"
        string_val: "../data/Training/Run_0001/images/frame_01551.png"
        string_val: "../data/Training/Run_0001/images/frame_03647.png"
        string_val: "../data/Training/Run_0001/images/frame_01760.png"
        string_val: "../data/Training/Run_0001/images/frame_04424.png"
        string_val: "../data/Training/Run_0001/images/frame_02852.png"
        string_val: "../data/Training/Run_0001/images/frame_03610.png"
        string_val: "../data/Training/Run_0001/images/frame_02640.png"
        string_val: "../data/Training/Run_0001/images/frame_04545.png"
        string_val: "../data/Training/Run_0001/images/frame_00512.png"
        string_val: "../data/Training/Run_0001/images/frame_04020.png"
        string_val: "../data/Training/Run_0001/images/frame_03067.png"
        string_val: "../data/Training/Run_0001/images/frame_00750.png"
        string_val: "../data/Training/Run_0001/images/frame_01707.png"
        string_val: "../data/Training/Run_0001/images/frame_04073.png"
        string_val: "../data/Training/Run_0001/images/frame_00779.png"
        string_val: "../data/Training/Run_0001/images/frame_00153.png"
        string_val: "../data/Training/Run_0001/images/frame_00410.png"
        string_val: "../data/Training/Run_0001/images/frame_00925.png"
        string_val: "../data/Training/Run_0001/images/frame_00632.png"
        string_val: "../data/Training/Run_0001/images/frame_00192.png"
        string_val: "../data/Training/Run_0001/images/frame_02861.png"
        string_val: "../data/Training/Run_0001/images/frame_01426.png"
        string_val: "../data/Training/Run_0001/images/frame_04322.png"
        string_val: "../data/Training/Run_0001/images/frame_02477.png"
        string_val: "../data/Training/Run_0001/images/frame_04428.png"
        string_val: "../data/Training/Run_0001/images/frame_03446.png"
        string_val: "../data/Training/Run_0001/images/frame_00655.png"
        string_val: "../data/Training/Run_0001/images/frame_00891.png"
        string_val: "../data/Training/Run_0001/images/frame_00010.png"
        string_val: "../data/Training/Run_0001/images/frame_01329.png"
        string_val: "../data/Training/Run_0001/images/frame_00288.png"
        string_val: "../data/Training/Run_0001/images/frame_02210.png"
        string_val: "../data/Training/Run_0001/images/frame_00301.png"
        string_val: "../data/Training/Run_0001/images/frame_03662.png"
        string_val: "../data/Training/Run_0001/images/frame_02855.png"
        string_val: "../data/Training/Run_0001/images/frame_00211.png"
        string_val: "../data/Training/Run_0001/images/frame_02544.png"
        string_val: "../data/Training/Run_0001/images/frame_00555.png"
        string_val: "../data/Training/Run_0001/images/frame_00157.png"
        string_val: "../data/Training/Run_0001/images/frame_01636.png"
        string_val: "../data/Training/Run_0001/images/frame_00025.png"
        string_val: "../data/Training/Run_0001/images/frame_03315.png"
        string_val: "../data/Training/Run_0001/images/frame_02910.png"
        string_val: "../data/Training/Run_0001/images/frame_03694.png"
        string_val: "../data/Training/Run_0001/images/frame_04626.png"
        string_val: "../data/Training/Run_0001/images/frame_01252.png"
        string_val: "../data/Training/Run_0001/images/frame_00488.png"
        string_val: "../data/Training/Run_0001/images/frame_04146.png"
        string_val: "../data/Training/Run_0001/images/frame_03899.png"
        string_val: "../data/Training/Run_0001/images/frame_00095.png"
        string_val: "../data/Training/Run_0001/images/frame_03953.png"
        string_val: "../data/Training/Run_0001/images/frame_01993.png"
        string_val: "../data/Training/Run_0001/images/frame_03745.png"
        string_val: "../data/Training/Run_0001/images/frame_00952.png"
        string_val: "../data/Training/Run_0001/images/frame_03972.png"
        string_val: "../data/Training/Run_0001/images/frame_04117.png"
        string_val: "../data/Training/Run_0001/images/frame_03334.png"
        string_val: "../data/Training/Run_0001/images/frame_00499.png"
        string_val: "../data/Training/Run_0001/images/frame_03938.png"
        string_val: "../data/Training/Run_0001/images/frame_04614.png"
        string_val: "../data/Training/Run_0001/images/frame_01888.png"
        string_val: "../data/Training/Run_0001/images/frame_00697.png"
        string_val: "../data/Training/Run_0001/images/frame_04608.png"
        string_val: "../data/Training/Run_0001/images/frame_00532.png"
        string_val: "../data/Training/Run_0001/images/frame_01680.png"
        string_val: "../data/Training/Run_0001/images/frame_03707.png"
        string_val: "../data/Training/Run_0001/images/frame_00875.png"
        string_val: "../data/Training/Run_0001/images/frame_00673.png"
        string_val: "../data/Training/Run_0001/images/frame_02991.png"
        string_val: "../data/Training/Run_0001/images/frame_03050.png"
        string_val: "../data/Training/Run_0001/images/frame_00777.png"
        string_val: "../data/Training/Run_0001/images/frame_00165.png"
        string_val: "../data/Training/Run_0001/images/frame_02736.png"
        string_val: "../data/Training/Run_0001/images/frame_00963.png"
        string_val: "../data/Training/Run_0001/images/frame_01274.png"
        string_val: "../data/Training/Run_0001/images/frame_01949.png"
        string_val: "../data/Training/Run_0001/images/frame_03679.png"
        string_val: "../data/Training/Run_0001/images/frame_03194.png"
        string_val: "../data/Training/Run_0001/images/frame_00525.png"
        string_val: "../data/Training/Run_0001/images/frame_03497.png"
        string_val: "../data/Training/Run_0001/images/frame_03062.png"
        string_val: "../data/Training/Run_0001/images/frame_04696.png"
        string_val: "../data/Training/Run_0001/images/frame_03176.png"
        string_val: "../data/Training/Run_0001/images/frame_04370.png"
        string_val: "../data/Training/Run_0001/images/frame_00147.png"
        string_val: "../data/Training/Run_0001/images/frame_03581.png"
        string_val: "../data/Training/Run_0001/images/frame_00271.png"
        string_val: "../data/Training/Run_0001/images/frame_02593.png"
        string_val: "../data/Training/Run_0001/images/frame_00453.png"
        string_val: "../data/Training/Run_0001/images/frame_03588.png"
        string_val: "../data/Training/Run_0001/images/frame_01780.png"
        string_val: "../data/Training/Run_0001/images/frame_04219.png"
        string_val: "../data/Training/Run_0001/images/frame_00331.png"
        string_val: "../data/Training/Run_0001/images/frame_03881.png"
        string_val: "../data/Training/Run_0001/images/frame_00786.png"
        string_val: "../data/Training/Run_0001/images/frame_01739.png"
        string_val: "../data/Training/Run_0001/images/frame_03656.png"
        string_val: "../data/Training/Run_0001/images/frame_00907.png"
        string_val: "../data/Training/Run_0001/images/frame_00345.png"
        string_val: "../data/Training/Run_0001/images/frame_01832.png"
        string_val: "../data/Training/Run_0001/images/frame_04508.png"
        string_val: "../data/Training/Run_0001/images/frame_01360.png"
        string_val: "../data/Training/Run_0001/images/frame_01462.png"
        string_val: "../data/Training/Run_0001/images/frame_04678.png"
        string_val: "../data/Training/Run_0001/images/frame_04244.png"
        string_val: "../data/Training/Run_0001/images/frame_03726.png"
        string_val: "../data/Training/Run_0001/images/frame_03268.png"
        string_val: "../data/Training/Run_0001/images/frame_00902.png"
        string_val: "../data/Training/Run_0001/images/frame_00247.png"
        string_val: "../data/Training/Run_0001/images/frame_00395.png"
        string_val: "../data/Training/Run_0001/images/frame_02625.png"
        string_val: "../data/Training/Run_0001/images/frame_03104.png"
        string_val: "../data/Training/Run_0001/images/frame_03969.png"
        string_val: "../data/Training/Run_0001/images/frame_02710.png"
        string_val: "../data/Training/Run_0001/images/frame_02288.png"
        string_val: "../data/Training/Run_0001/images/frame_00586.png"
        string_val: "../data/Training/Run_0001/images/frame_00634.png"
        string_val: "../data/Training/Run_0001/images/frame_03361.png"
        string_val: "../data/Training/Run_0001/images/frame_00723.png"
        string_val: "../data/Training/Run_0001/images/frame_01052.png"
        string_val: "../data/Training/Run_0001/images/frame_03700.png"
        string_val: "../data/Training/Run_0001/images/frame_03381.png"
        string_val: "../data/Training/Run_0001/images/frame_00823.png"
        string_val: "../data/Training/Run_0001/images/frame_01561.png"
        string_val: "../data/Training/Run_0001/images/frame_02349.png"
        string_val: "../data/Training/Run_0001/images/frame_00043.png"
        string_val: "../data/Training/Run_0001/images/frame_02309.png"
        string_val: "../data/Training/Run_0001/images/frame_01970.png"
        string_val: "../data/Training/Run_0001/images/frame_02809.png"
        string_val: "../data/Training/Run_0001/images/frame_02502.png"
        string_val: "../data/Training/Run_0001/images/frame_00072.png"
        string_val: "../data/Training/Run_0001/images/frame_00478.png"
        string_val: "../data/Training/Run_0001/images/frame_02510.png"
        string_val: "../data/Training/Run_0001/images/frame_00877.png"
        string_val: "../data/Training/Run_0001/images/frame_02253.png"
        string_val: "../data/Training/Run_0001/images/frame_01736.png"
        string_val: "../data/Training/Run_0001/images/frame_03630.png"
        string_val: "../data/Training/Run_0001/images/frame_01984.png"
        string_val: "../data/Training/Run_0001/images/frame_03903.png"
        string_val: "../data/Training/Run_0001/images/frame_01740.png"
        string_val: "../data/Training/Run_0001/images/frame_00812.png"
        string_val: "../data/Training/Run_0001/images/frame_04563.png"
        string_val: "../data/Training/Run_0001/images/frame_04182.png"
        string_val: "../data/Training/Run_0001/images/frame_00249.png"
        string_val: "../data/Training/Run_0001/images/frame_01611.png"
        string_val: "../data/Training/Run_0001/images/frame_03433.png"
        string_val: "../data/Training/Run_0001/images/frame_04037.png"
        string_val: "../data/Training/Run_0001/images/frame_02250.png"
        string_val: "../data/Training/Run_0001/images/frame_01417.png"
        string_val: "../data/Training/Run_0001/images/frame_02977.png"
        string_val: "../data/Training/Run_0001/images/frame_00768.png"
        string_val: "../data/Training/Run_0001/images/frame_02496.png"
        string_val: "../data/Training/Run_0001/images/frame_01774.png"
        string_val: "../data/Training/Run_0001/images/frame_03568.png"
        string_val: "../data/Training/Run_0001/images/frame_00791.png"
        string_val: "../data/Training/Run_0001/images/frame_04247.png"
        string_val: "../data/Training/Run_0001/images/frame_01532.png"
        string_val: "../data/Training/Run_0001/images/frame_04462.png"
        string_val: "../data/Training/Run_0001/images/frame_04027.png"
        string_val: "../data/Training/Run_0001/images/frame_00806.png"
        string_val: "../data/Training/Run_0001/images/frame_03907.png"
        string_val: "../data/Training/Run_0001/images/frame_00328.png"
        string_val: "../data/Training/Run_0001/images/frame_01215.png"
        string_val: "../data/Training/Run_0001/images/frame_03781.png"
        string_val: "../data/Training/Run_0001/images/frame_04528.png"
        string_val: "../data/Training/Run_0001/images/frame_00258.png"
        string_val: "../data/Training/Run_0001/images/frame_02519.png"
        string_val: "../data/Training/Run_0001/images/frame_04668.png"
        string_val: "../data/Training/Run_0001/images/frame_00846.png"
        string_val: "../data/Training/Run_0001/images/frame_04416.png"
        string_val: "../data/Training/Run_0001/images/frame_02856.png"
        string_val: "../data/Training/Run_0001/images/frame_01545.png"
        string_val: "../data/Training/Run_0001/images/frame_00901.png"
        string_val: "../data/Training/Run_0001/images/frame_03273.png"
        string_val: "../data/Training/Run_0001/images/frame_03518.png"
        string_val: "../data/Training/Run_0001/images/frame_01542.png"
        string_val: "../data/Training/Run_0001/images/frame_00967.png"
        string_val: "../data/Training/Run_0001/images/frame_03743.png"
        string_val: "../data/Training/Run_0001/images/frame_01989.png"
        string_val: "../data/Training/Run_0001/images/frame_03814.png"
        string_val: "../data/Training/Run_0001/images/frame_02087.png"
        string_val: "../data/Training/Run_0001/images/frame_03276.png"
        string_val: "../data/Training/Run_0001/images/frame_03412.png"
        string_val: "../data/Training/Run_0001/images/frame_04486.png"
        string_val: "../data/Training/Run_0001/images/frame_00004.png"
        string_val: "../data/Training/Run_0001/images/frame_02780.png"
        string_val: "../data/Training/Run_0001/images/frame_02097.png"
        string_val: "../data/Training/Run_0001/images/frame_00263.png"
        string_val: "../data/Training/Run_0001/images/frame_02060.png"
        string_val: "../data/Training/Run_0001/images/frame_00507.png"
        string_val: "../data/Training/Run_0001/images/frame_03094.png"
        string_val: "../data/Training/Run_0001/images/frame_01287.png"
        string_val: "../data/Training/Run_0001/images/frame_03775.png"
        string_val: "../data/Training/Run_0001/images/frame_03482.png"
        string_val: "../data/Training/Run_0001/images/frame_00218.png"
        string_val: "../data/Training/Run_0001/images/frame_02738.png"
        string_val: "../data/Training/Run_0001/images/frame_04450.png"
        string_val: "../data/Training/Run_0001/images/frame_03319.png"
        string_val: "../data/Training/Run_0001/images/frame_02721.png"
        string_val: "../data/Training/Run_0001/images/frame_01640.png"
        string_val: "../data/Training/Run_0001/images/frame_02880.png"
        string_val: "../data/Training/Run_0001/images/frame_04002.png"
        string_val: "../data/Training/Run_0001/images/frame_04552.png"
        string_val: "../data/Training/Run_0001/images/frame_04693.png"
        string_val: "../data/Training/Run_0001/images/frame_04046.png"
        string_val: "../data/Training/Run_0001/images/frame_03789.png"
        string_val: "../data/Training/Run_0001/images/frame_02585.png"
        string_val: "../data/Training/Run_0001/images/frame_00475.png"
        string_val: "../data/Training/Run_0001/images/frame_01321.png"
        string_val: "../data/Training/Run_0001/images/frame_02327.png"
        string_val: "../data/Training/Run_0001/images/frame_02718.png"
        string_val: "../data/Training/Run_0001/images/frame_04096.png"
        string_val: "../data/Training/Run_0001/images/frame_01100.png"
        string_val: "../data/Training/Run_0001/images/frame_01386.png"
        string_val: "../data/Training/Run_0001/images/frame_02870.png"
        string_val: "../data/Training/Run_0001/images/frame_02230.png"
        string_val: "../data/Training/Run_0001/images/frame_04550.png"
        string_val: "../data/Training/Run_0001/images/frame_00665.png"
        string_val: "../data/Training/Run_0001/images/frame_01478.png"
        string_val: "../data/Training/Run_0001/images/frame_03249.png"
        string_val: "../data/Training/Run_0001/images/frame_02874.png"
        string_val: "../data/Training/Run_0001/images/frame_04555.png"
        string_val: "../data/Training/Run_0001/images/frame_03127.png"
        string_val: "../data/Training/Run_0001/images/frame_00226.png"
        string_val: "../data/Training/Run_0001/images/frame_02259.png"
        string_val: "../data/Training/Run_0001/images/frame_02833.png"
        string_val: "../data/Training/Run_0001/images/frame_03148.png"
        string_val: "../data/Training/Run_0001/images/frame_02351.png"
        string_val: "../data/Training/Run_0001/images/frame_00434.png"
        string_val: "../data/Training/Run_0001/images/frame_03665.png"
        string_val: "../data/Training/Run_0001/images/frame_01866.png"
        string_val: "../data/Training/Run_0001/images/frame_00689.png"
        string_val: "../data/Training/Run_0001/images/frame_04598.png"
        string_val: "../data/Training/Run_0001/images/frame_01319.png"
        string_val: "../data/Training/Run_0001/images/frame_02550.png"
        string_val: "../data/Training/Run_0001/images/frame_03808.png"
        string_val: "../data/Training/Run_0001/images/frame_01811.png"
        string_val: "../data/Training/Run_0001/images/frame_04196.png"
        string_val: "../data/Training/Run_0001/images/frame_02501.png"
        string_val: "../data/Training/Run_0001/images/frame_00270.png"
        string_val: "../data/Training/Run_0001/images/frame_03450.png"
        string_val: "../data/Training/Run_0001/images/frame_03265.png"
        string_val: "../data/Training/Run_0001/images/frame_02713.png"
        string_val: "../data/Training/Run_0001/images/frame_00391.png"
        string_val: "../data/Training/Run_0001/images/frame_01807.png"
        string_val: "../data/Training/Run_0001/images/frame_04148.png"
        string_val: "../data/Training/Run_0001/images/frame_04495.png"
        string_val: "../data/Training/Run_0001/images/frame_04181.png"
        string_val: "../data/Training/Run_0001/images/frame_00912.png"
        string_val: "../data/Training/Run_0001/images/frame_02615.png"
        string_val: "../data/Training/Run_0001/images/frame_00520.png"
        string_val: "../data/Training/Run_0001/images/frame_01202.png"
        string_val: "../data/Training/Run_0001/images/frame_03455.png"
        string_val: "../data/Training/Run_0001/images/frame_01585.png"
        string_val: "../data/Training/Run_0001/images/frame_04600.png"
        string_val: "../data/Training/Run_0001/images/frame_02482.png"
        string_val: "../data/Training/Run_0001/images/frame_00021.png"
        string_val: "../data/Training/Run_0001/images/frame_02620.png"
        string_val: "../data/Training/Run_0001/images/frame_00132.png"
        string_val: "../data/Training/Run_0001/images/frame_01788.png"
        string_val: "../data/Training/Run_0001/images/frame_03860.png"
        string_val: "../data/Training/Run_0001/images/frame_00698.png"
        string_val: "../data/Training/Run_0001/images/frame_02174.png"
        string_val: "../data/Training/Run_0001/images/frame_00913.png"
        string_val: "../data/Training/Run_0001/images/frame_01779.png"
        string_val: "../data/Training/Run_0001/images/frame_04690.png"
        string_val: "../data/Training/Run_0001/images/frame_03690.png"
        string_val: "../data/Training/Run_0001/images/frame_04473.png"
        string_val: "../data/Training/Run_0001/images/frame_03325.png"
        string_val: "../data/Training/Run_0001/images/frame_02836.png"
        string_val: "../data/Training/Run_0001/images/frame_00720.png"
        string_val: "../data/Training/Run_0001/images/frame_04570.png"
        string_val: "../data/Training/Run_0001/images/frame_03396.png"
        string_val: "../data/Training/Run_0001/images/frame_02409.png"
        string_val: "../data/Training/Run_0001/images/frame_01311.png"
        string_val: "../data/Training/Run_0001/images/frame_00125.png"
        string_val: "../data/Training/Run_0001/images/frame_03586.png"
        string_val: "../data/Training/Run_0001/images/frame_04204.png"
        string_val: "../data/Training/Run_0001/images/frame_02727.png"
        string_val: "../data/Training/Run_0001/images/frame_03309.png"
        string_val: "../data/Training/Run_0001/images/frame_00551.png"
        string_val: "../data/Training/Run_0001/images/frame_04480.png"
        string_val: "../data/Training/Run_0001/images/frame_00594.png"
        string_val: "../data/Training/Run_0001/images/frame_00558.png"
        string_val: "../data/Training/Run_0001/images/frame_02698.png"
        string_val: "../data/Training/Run_0001/images/frame_04575.png"
        string_val: "../data/Training/Run_0001/images/frame_01946.png"
        string_val: "../data/Training/Run_0001/images/frame_00945.png"
        string_val: "../data/Training/Run_0001/images/frame_03660.png"
        string_val: "../data/Training/Run_0001/images/frame_00568.png"
        string_val: "../data/Training/Run_0001/images/frame_01988.png"
        string_val: "../data/Training/Run_0001/images/frame_03312.png"
        string_val: "../data/Training/Run_0001/images/frame_03704.png"
        string_val: "../data/Training/Run_0001/images/frame_00749.png"
        string_val: "../data/Training/Run_0001/images/frame_01258.png"
        string_val: "../data/Training/Run_0001/images/frame_00375.png"
        string_val: "../data/Training/Run_0001/images/frame_02804.png"
        string_val: "../data/Training/Run_0001/images/frame_00242.png"
        string_val: "../data/Training/Run_0001/images/frame_03065.png"
        string_val: "../data/Training/Run_0001/images/frame_03215.png"
        string_val: "../data/Training/Run_0001/images/frame_04589.png"
        string_val: "../data/Training/Run_0001/images/frame_04165.png"
        string_val: "../data/Training/Run_0001/images/frame_03054.png"
        string_val: "../data/Training/Run_0001/images/frame_00075.png"
        string_val: "../data/Training/Run_0001/images/frame_01439.png"
        string_val: "../data/Training/Run_0001/images/frame_00402.png"
        string_val: "../data/Training/Run_0001/images/frame_01325.png"
        string_val: "../data/Training/Run_0001/images/frame_02108.png"
        string_val: "../data/Training/Run_0001/images/frame_01812.png"
        string_val: "../data/Training/Run_0001/images/frame_00940.png"
        string_val: "../data/Training/Run_0001/images/frame_03912.png"
        string_val: "../data/Training/Run_0001/images/frame_00626.png"
        string_val: "../data/Training/Run_0001/images/frame_01495.png"
        string_val: "../data/Training/Run_0001/images/frame_02345.png"
        string_val: "../data/Training/Run_0001/images/frame_00313.png"
        string_val: "../data/Training/Run_0001/images/frame_01483.png"
        string_val: "../data/Training/Run_0001/images/frame_03040.png"
        string_val: "../data/Training/Run_0001/images/frame_01566.png"
        string_val: "../data/Training/Run_0001/images/frame_01060.png"
        string_val: "../data/Training/Run_0001/images/frame_03186.png"
        string_val: "../data/Training/Run_0001/images/frame_01801.png"
        string_val: "../data/Training/Run_0001/images/frame_01380.png"
        string_val: "../data/Training/Run_0001/images/frame_04405.png"
        string_val: "../data/Training/Run_0001/images/frame_02165.png"
        string_val: "../data/Training/Run_0001/images/frame_02985.png"
        string_val: "../data/Training/Run_0001/images/frame_02845.png"
        string_val: "../data/Training/Run_0001/images/frame_01271.png"
        string_val: "../data/Training/Run_0001/images/frame_02857.png"
        string_val: "../data/Training/Run_0001/images/frame_03235.png"
        string_val: "../data/Training/Run_0001/images/frame_01830.png"
        string_val: "../data/Training/Run_0001/images/frame_00853.png"
        string_val: "../data/Training/Run_0001/images/frame_00159.png"
        string_val: "../data/Training/Run_0001/images/frame_01800.png"
        string_val: "../data/Training/Run_0001/images/frame_03654.png"
        string_val: "../data/Training/Run_0001/images/frame_02850.png"
        string_val: "../data/Training/Run_0001/images/frame_01848.png"
        string_val: "../data/Training/Run_0001/images/frame_01206.png"
        string_val: "../data/Training/Run_0001/images/frame_04269.png"
        string_val: "../data/Training/Run_0001/images/frame_04143.png"
        string_val: "../data/Training/Run_0001/images/frame_02454.png"
        string_val: "../data/Training/Run_0001/images/frame_02696.png"
        string_val: "../data/Training/Run_0001/images/frame_02689.png"
        string_val: "../data/Training/Run_0001/images/frame_02535.png"
        string_val: "../data/Training/Run_0001/images/frame_04314.png"
        string_val: "../data/Training/Run_0001/images/frame_00085.png"
        string_val: "../data/Training/Run_0001/images/frame_00046.png"
        string_val: "../data/Training/Run_0001/images/frame_03024.png"
        string_val: "../data/Training/Run_0001/images/frame_01257.png"
        string_val: "../data/Training/Run_0001/images/frame_02130.png"
        string_val: "../data/Training/Run_0001/images/frame_03636.png"
        string_val: "../data/Training/Run_0001/images/frame_03798.png"
        string_val: "../data/Training/Run_0001/images/frame_03817.png"
        string_val: "../data/Training/Run_0001/images/frame_04288.png"
        string_val: "../data/Training/Run_0001/images/frame_04094.png"
        string_val: "../data/Training/Run_0001/images/frame_01614.png"
        string_val: "../data/Training/Run_0001/images/frame_00299.png"
        string_val: "../data/Training/Run_0001/images/frame_04276.png"
        string_val: "../data/Training/Run_0001/images/frame_00764.png"
        string_val: "../data/Training/Run_0001/images/frame_00628.png"
        string_val: "../data/Training/Run_0001/images/frame_02050.png"
        string_val: "../data/Training/Run_0001/images/frame_01172.png"
        string_val: "../data/Training/Run_0001/images/frame_01120.png"
        string_val: "../data/Training/Run_0001/images/frame_02929.png"
        string_val: "../data/Training/Run_0001/images/frame_02425.png"
        string_val: "../data/Training/Run_0001/images/frame_02677.png"
        string_val: "../data/Training/Run_0001/images/frame_02396.png"
        string_val: "../data/Training/Run_0001/images/frame_03942.png"
        string_val: "../data/Training/Run_0001/images/frame_03671.png"
        string_val: "../data/Training/Run_0001/images/frame_01049.png"
        string_val: "../data/Training/Run_0001/images/frame_01011.png"
        string_val: "../data/Training/Run_0001/images/frame_02594.png"
        string_val: "../data/Training/Run_0001/images/frame_02782.png"
        string_val: "../data/Training/Run_0001/images/frame_04493.png"
        string_val: "../data/Training/Run_0001/images/frame_03742.png"
        string_val: "../data/Training/Run_0001/images/frame_02712.png"
        string_val: "../data/Training/Run_0001/images/frame_01150.png"
        string_val: "../data/Training/Run_0001/images/frame_00923.png"
        string_val: "../data/Training/Run_0001/images/frame_03411.png"
        string_val: "../data/Training/Run_0001/images/frame_00463.png"
        string_val: "../data/Training/Run_0001/images/frame_00412.png"
        string_val: "../data/Training/Run_0001/images/frame_03913.png"
        string_val: "../data/Training/Run_0001/images/frame_02248.png"
        string_val: "../data/Training/Run_0001/images/frame_00985.png"
        string_val: "../data/Training/Run_0001/images/frame_02634.png"
        string_val: "../data/Training/Run_0001/images/frame_01618.png"
        string_val: "../data/Training/Run_0001/images/frame_02334.png"
        string_val: "../data/Training/Run_0001/images/frame_02438.png"
        string_val: "../data/Training/Run_0001/images/frame_04494.png"
        string_val: "../data/Training/Run_0001/images/frame_01563.png"
        string_val: "../data/Training/Run_0001/images/frame_04715.png"
        string_val: "../data/Training/Run_0001/images/frame_04632.png"
        string_val: "../data/Training/Run_0001/images/frame_00841.png"
        string_val: "../data/Training/Run_0001/images/frame_02278.png"
        string_val: "../data/Training/Run_0001/images/frame_02622.png"
        string_val: "../data/Training/Run_0001/images/frame_00048.png"
        string_val: "../data/Training/Run_0001/images/frame_00550.png"
        string_val: "../data/Training/Run_0001/images/frame_00278.png"
        string_val: "../data/Training/Run_0001/images/frame_00148.png"
        string_val: "../data/Training/Run_0001/images/frame_04463.png"
        string_val: "../data/Training/Run_0001/images/frame_02390.png"
        string_val: "../data/Training/Run_0001/images/frame_00760.png"
        string_val: "../data/Training/Run_0001/images/frame_01326.png"
        string_val: "../data/Training/Run_0001/images/frame_02603.png"
        string_val: "../data/Training/Run_0001/images/frame_01028.png"
        string_val: "../data/Training/Run_0001/images/frame_01245.png"
        string_val: "../data/Training/Run_0001/images/frame_03189.png"
        string_val: "../data/Training/Run_0001/images/frame_04019.png"
        string_val: "../data/Training/Run_0001/images/frame_03960.png"
        string_val: "../data/Training/Run_0001/images/frame_03596.png"
        string_val: "../data/Training/Run_0001/images/frame_01964.png"
        string_val: "../data/Training/Run_0001/images/frame_01869.png"
        string_val: "../data/Training/Run_0001/images/frame_03733.png"
        string_val: "../data/Training/Run_0001/images/frame_00996.png"
        string_val: "../data/Training/Run_0001/images/frame_00872.png"
        string_val: "../data/Training/Run_0001/images/frame_03379.png"
        string_val: "../data/Training/Run_0001/images/frame_02036.png"
        string_val: "../data/Training/Run_0001/images/frame_02229.png"
        string_val: "../data/Training/Run_0001/images/frame_02136.png"
        string_val: "../data/Training/Run_0001/images/frame_01397.png"
        string_val: "../data/Training/Run_0001/images/frame_01864.png"
        string_val: "../data/Training/Run_0001/images/frame_01581.png"
        string_val: "../data/Training/Run_0001/images/frame_02470.png"
        string_val: "../data/Training/Run_0001/images/frame_00350.png"
        string_val: "../data/Training/Run_0001/images/frame_03934.png"
        string_val: "../data/Training/Run_0001/images/frame_03815.png"
        string_val: "../data/Training/Run_0001/images/frame_02201.png"
        string_val: "../data/Training/Run_0001/images/frame_01285.png"
        string_val: "../data/Training/Run_0001/images/frame_04132.png"
        string_val: "../data/Training/Run_0001/images/frame_03146.png"
        string_val: "../data/Training/Run_0001/images/frame_00231.png"
        string_val: "../data/Training/Run_0001/images/frame_01731.png"
        string_val: "../data/Training/Run_0001/images/frame_02522.png"
        string_val: "../data/Training/Run_0001/images/frame_00382.png"
        string_val: "../data/Training/Run_0001/images/frame_00241.png"
        string_val: "../data/Training/Run_0001/images/frame_01769.png"
        string_val: "../data/Training/Run_0001/images/frame_00104.png"
        string_val: "../data/Training/Run_0001/images/frame_04583.png"
        string_val: "../data/Training/Run_0001/images/frame_01345.png"
        string_val: "../data/Training/Run_0001/images/frame_01696.png"
        string_val: "../data/Training/Run_0001/images/frame_03849.png"
        string_val: "../data/Training/Run_0001/images/frame_03074.png"
        string_val: "../data/Training/Run_0001/images/frame_03262.png"
        string_val: "../data/Training/Run_0001/images/frame_01121.png"
        string_val: "../data/Training/Run_0001/images/frame_03306.png"
        string_val: "../data/Training/Run_0001/images/frame_02151.png"
        string_val: "../data/Training/Run_0001/images/frame_02754.png"
        string_val: "../data/Training/Run_0001/images/frame_00002.png"
        string_val: "../data/Training/Run_0001/images/frame_04153.png"
        string_val: "../data/Training/Run_0001/images/frame_00970.png"
        string_val: "../data/Training/Run_0001/images/frame_01091.png"
        string_val: "../data/Training/Run_0001/images/frame_01887.png"
        string_val: "../data/Training/Run_0001/images/frame_01194.png"
        string_val: "../data/Training/Run_0001/images/frame_04418.png"
        string_val: "../data/Training/Run_0001/images/frame_02885.png"
        string_val: "../data/Training/Run_0001/images/frame_01556.png"
        string_val: "../data/Training/Run_0001/images/frame_02813.png"
        string_val: "../data/Training/Run_0001/images/frame_01839.png"
        string_val: "../data/Training/Run_0001/images/frame_03543.png"
        string_val: "../data/Training/Run_0001/images/frame_02574.png"
        string_val: "../data/Training/Run_0001/images/frame_02945.png"
        string_val: "../data/Training/Run_0001/images/frame_04243.png"
        string_val: "../data/Training/Run_0001/images/frame_01424.png"
        string_val: "../data/Training/Run_0001/images/frame_02282.png"
        string_val: "../data/Training/Run_0001/images/frame_02084.png"
        string_val: "../data/Training/Run_0001/images/frame_02686.png"
        string_val: "../data/Training/Run_0001/images/frame_01403.png"
        string_val: "../data/Training/Run_0001/images/frame_00917.png"
        string_val: "../data/Training/Run_0001/images/frame_02932.png"
        string_val: "../data/Training/Run_0001/images/frame_02400.png"
        string_val: "../data/Training/Run_0001/images/frame_04009.png"
        string_val: "../data/Training/Run_0001/images/frame_04541.png"
        string_val: "../data/Training/Run_0001/images/frame_03585.png"
        string_val: "../data/Training/Run_0001/images/frame_02642.png"
        string_val: "../data/Training/Run_0001/images/frame_00094.png"
        string_val: "../data/Training/Run_0001/images/frame_01448.png"
        string_val: "../data/Training/Run_0001/images/frame_00611.png"
        string_val: "../data/Training/Run_0001/images/frame_00060.png"
        string_val: "../data/Training/Run_0001/images/frame_02099.png"
        string_val: "../data/Training/Run_0001/images/frame_02310.png"
        string_val: "../data/Training/Run_0001/images/frame_03380.png"
        string_val: "../data/Training/Run_0001/images/frame_00340.png"
        string_val: "../data/Training/Run_0001/images/frame_03616.png"
        string_val: "../data/Training/Run_0001/images/frame_02889.png"
        string_val: "../data/Training/Run_0001/images/frame_02047.png"
        string_val: "../data/Training/Run_0001/images/frame_04128.png"
        string_val: "../data/Training/Run_0001/images/frame_04338.png"
        string_val: "../data/Training/Run_0001/images/frame_03562.png"
        string_val: "../data/Training/Run_0001/images/frame_02171.png"
        string_val: "../data/Training/Run_0001/images/frame_02785.png"
        string_val: "../data/Training/Run_0001/images/frame_03921.png"
        string_val: "../data/Training/Run_0001/images/frame_00523.png"
        string_val: "../data/Training/Run_0001/images/frame_01372.png"
        string_val: "../data/Training/Run_0001/images/frame_00105.png"
        string_val: "../data/Training/Run_0001/images/frame_03606.png"
        string_val: "../data/Training/Run_0001/images/frame_03041.png"
        string_val: "../data/Training/Run_0001/images/frame_01450.png"
        string_val: "../data/Training/Run_0001/images/frame_03430.png"
        string_val: "../data/Training/Run_0001/images/frame_04007.png"
        string_val: "../data/Training/Run_0001/images/frame_02432.png"
        string_val: "../data/Training/Run_0001/images/frame_00406.png"
        string_val: "../data/Training/Run_0001/images/frame_03870.png"
        string_val: "../data/Training/Run_0001/images/frame_04245.png"
        string_val: "../data/Training/Run_0001/images/frame_02481.png"
        string_val: "../data/Training/Run_0001/images/frame_02942.png"
        string_val: "../data/Training/Run_0001/images/frame_01941.png"
        string_val: "../data/Training/Run_0001/images/frame_01054.png"
        string_val: "../data/Training/Run_0001/images/frame_00126.png"
        string_val: "../data/Training/Run_0001/images/frame_03615.png"
        string_val: "../data/Training/Run_0001/images/frame_00754.png"
        string_val: "../data/Training/Run_0001/images/frame_01122.png"
        string_val: "../data/Training/Run_0001/images/frame_02537.png"
        string_val: "../data/Training/Run_0001/images/frame_02161.png"
        string_val: "../data/Training/Run_0001/images/frame_02219.png"
        string_val: "../data/Training/Run_0001/images/frame_04533.png"
        string_val: "../data/Training/Run_0001/images/frame_04594.png"
        string_val: "../data/Training/Run_0001/images/frame_03720.png"
        string_val: "../data/Training/Run_0001/images/frame_04068.png"
        string_val: "../data/Training/Run_0001/images/frame_02384.png"
        string_val: "../data/Training/Run_0001/images/frame_03688.png"
        string_val: "../data/Training/Run_0001/images/frame_02061.png"
        string_val: "../data/Training/Run_0001/images/frame_03594.png"
        string_val: "../data/Training/Run_0001/images/frame_01690.png"
        string_val: "../data/Training/Run_0001/images/frame_00338.png"
        string_val: "../data/Training/Run_0001/images/frame_00282.png"
        string_val: "../data/Training/Run_0001/images/frame_01616.png"
        string_val: "../data/Training/Run_0001/images/frame_01748.png"
        string_val: "../data/Training/Run_0001/images/frame_02394.png"
        string_val: "../data/Training/Run_0001/images/frame_01076.png"
        string_val: "../data/Training/Run_0001/images/frame_04449.png"
        string_val: "../data/Training/Run_0001/images/frame_02466.png"
        string_val: "../data/Training/Run_0001/images/frame_00306.png"
        string_val: "../data/Training/Run_0001/images/frame_03073.png"
        string_val: "../data/Training/Run_0001/images/frame_00497.png"
        string_val: "../data/Training/Run_0001/images/frame_01663.png"
        string_val: "../data/Training/Run_0001/images/frame_04104.png"
        string_val: "../data/Training/Run_0001/images/frame_04142.png"
        string_val: "../data/Training/Run_0001/images/frame_04403.png"
        string_val: "../data/Training/Run_0001/images/frame_03856.png"
        string_val: "../data/Training/Run_0001/images/frame_00752.png"
        string_val: "../data/Training/Run_0001/images/frame_01268.png"
        string_val: "../data/Training/Run_0001/images/frame_03205.png"
        string_val: "../data/Training/Run_0001/images/frame_00951.png"
        string_val: "../data/Training/Run_0001/images/frame_00799.png"
        string_val: "../data/Training/Run_0001/images/frame_01436.png"
        string_val: "../data/Training/Run_0001/images/frame_00895.png"
        string_val: "../data/Training/Run_0001/images/frame_01010.png"
        string_val: "../data/Training/Run_0001/images/frame_02046.png"
        string_val: "../data/Training/Run_0001/images/frame_00531.png"
        string_val: "../data/Training/Run_0001/images/frame_02687.png"
        string_val: "../data/Training/Run_0001/images/frame_01418.png"
        string_val: "../data/Training/Run_0001/images/frame_00991.png"
        string_val: "../data/Training/Run_0001/images/frame_04630.png"
        string_val: "../data/Training/Run_0001/images/frame_02414.png"
        string_val: "../data/Training/Run_0001/images/frame_04689.png"
        string_val: "../data/Training/Run_0001/images/frame_04576.png"
        string_val: "../data/Training/Run_0001/images/frame_01493.png"
        string_val: "../data/Training/Run_0001/images/frame_01659.png"
        string_val: "../data/Training/Run_0001/images/frame_04286.png"
        string_val: "../data/Training/Run_0001/images/frame_02771.png"
        string_val: "../data/Training/Run_0001/images/frame_00221.png"
        string_val: "../data/Training/Run_0001/images/frame_02987.png"
        string_val: "../data/Training/Run_0001/images/frame_02026.png"
        string_val: "../data/Training/Run_0001/images/frame_03810.png"
        string_val: "../data/Training/Run_0001/images/frame_03360.png"
        string_val: "../data/Training/Run_0001/images/frame_03212.png"
        string_val: "../data/Training/Run_0001/images/frame_04199.png"
        string_val: "../data/Training/Run_0001/images/frame_04179.png"
        string_val: "../data/Training/Run_0001/images/frame_01865.png"
        string_val: "../data/Training/Run_0001/images/frame_00143.png"
        string_val: "../data/Training/Run_0001/images/frame_00446.png"
        string_val: "../data/Training/Run_0001/images/frame_04050.png"
        string_val: "../data/Training/Run_0001/images/frame_02599.png"
        string_val: "../data/Training/Run_0001/images/frame_00383.png"
        string_val: "../data/Training/Run_0001/images/frame_00545.png"
        string_val: "../data/Training/Run_0001/images/frame_03294.png"
        string_val: "../data/Training/Run_0001/images/frame_03480.png"
        string_val: "../data/Training/Run_0001/images/frame_00599.png"
        string_val: "../data/Training/Run_0001/images/frame_02840.png"
        string_val: "../data/Training/Run_0001/images/frame_02655.png"
        string_val: "../data/Training/Run_0001/images/frame_00966.png"
        string_val: "../data/Training/Run_0001/images/frame_03871.png"
        string_val: "../data/Training/Run_0001/images/frame_03524.png"
        string_val: "../data/Training/Run_0001/images/frame_03096.png"
        string_val: "../data/Training/Run_0001/images/frame_04342.png"
        string_val: "../data/Training/Run_0001/images/frame_01945.png"
        string_val: "../data/Training/Run_0001/images/frame_03920.png"
        string_val: "../data/Training/Run_0001/images/frame_01443.png"
        string_val: "../data/Training/Run_0001/images/frame_00537.png"
        string_val: "../data/Training/Run_0001/images/frame_04400.png"
        string_val: "../data/Training/Run_0001/images/frame_04259.png"
        string_val: "../data/Training/Run_0001/images/frame_03395.png"
        string_val: "../data/Training/Run_0001/images/frame_01131.png"
        string_val: "../data/Training/Run_0001/images/frame_04539.png"
        string_val: "../data/Training/Run_0001/images/frame_02004.png"
        string_val: "../data/Training/Run_0001/images/frame_00603.png"
        string_val: "../data/Training/Run_0001/images/frame_03981.png"
        string_val: "../data/Training/Run_0001/images/frame_04708.png"
        string_val: "../data/Training/Run_0001/images/frame_03635.png"
        string_val: "../data/Training/Run_0001/images/frame_02447.png"
        string_val: "../data/Training/Run_0001/images/frame_02361.png"
        string_val: "../data/Training/Run_0001/images/frame_04329.png"
        string_val: "../data/Training/Run_0001/images/frame_00266.png"
        string_val: "../data/Training/Run_0001/images/frame_03612.png"
        string_val: "../data/Training/Run_0001/images/frame_02263.png"
        string_val: "../data/Training/Run_0001/images/frame_03131.png"
        string_val: "../data/Training/Run_0001/images/frame_03125.png"
        string_val: "../data/Training/Run_0001/images/frame_01235.png"
        string_val: "../data/Training/Run_0001/images/frame_03889.png"
        string_val: "../data/Training/Run_0001/images/frame_03595.png"
        string_val: "../data/Training/Run_0001/images/frame_01437.png"
        string_val: "../data/Training/Run_0001/images/frame_04326.png"
        string_val: "../data/Training/Run_0001/images/frame_04613.png"
        string_val: "../data/Training/Run_0001/images/frame_04092.png"
        string_val: "../data/Training/Run_0001/images/frame_03063.png"
        string_val: "../data/Training/Run_0001/images/frame_03195.png"
        string_val: "../data/Training/Run_0001/images/frame_00381.png"
        string_val: "../data/Training/Run_0001/images/frame_00336.png"
        string_val: "../data/Training/Run_0001/images/frame_00491.png"
        string_val: "../data/Training/Run_0001/images/frame_04371.png"
        string_val: "../data/Training/Run_0001/images/frame_00492.png"
        string_val: "../data/Training/Run_0001/images/frame_03230.png"
        string_val: "../data/Training/Run_0001/images/frame_01041.png"
        string_val: "../data/Training/Run_0001/images/frame_04399.png"
        string_val: "../data/Training/Run_0001/images/frame_01118.png"
        string_val: "../data/Training/Run_0001/images/frame_00476.png"
        string_val: "../data/Training/Run_0001/images/frame_03825.png"
        string_val: "../data/Training/Run_0001/images/frame_03471.png"
        string_val: "../data/Training/Run_0001/images/frame_04599.png"
        string_val: "../data/Training/Run_0001/images/frame_02297.png"
        string_val: "../data/Training/Run_0001/images/frame_01841.png"
        string_val: "../data/Training/Run_0001/images/frame_04692.png"
        string_val: "../data/Training/Run_0001/images/frame_03546.png"
        string_val: "../data/Training/Run_0001/images/frame_03658.png"
        string_val: "../data/Training/Run_0001/images/frame_01473.png"
        string_val: "../data/Training/Run_0001/images/frame_04220.png"
        string_val: "../data/Training/Run_0001/images/frame_00006.png"
        string_val: "../data/Training/Run_0001/images/frame_03266.png"
        string_val: "../data/Training/Run_0001/images/frame_01904.png"
        string_val: "../data/Training/Run_0001/images/frame_03368.png"
        string_val: "../data/Training/Run_0001/images/frame_01498.png"
        string_val: "../data/Training/Run_0001/images/frame_04279.png"
        string_val: "../data/Training/Run_0001/images/frame_03252.png"
        string_val: "../data/Training/Run_0001/images/frame_02185.png"
        string_val: "../data/Training/Run_0001/images/frame_01955.png"
        string_val: "../data/Training/Run_0001/images/frame_01177.png"
        string_val: "../data/Training/Run_0001/images/frame_04225.png"
        string_val: "../data/Training/Run_0001/images/frame_01022.png"
        string_val: "../data/Training/Run_0001/images/frame_03974.png"
        string_val: "../data/Training/Run_0001/images/frame_03113.png"
        string_val: "../data/Training/Run_0001/images/frame_02671.png"
        string_val: "../data/Training/Run_0001/images/frame_03838.png"
        string_val: "../data/Training/Run_0001/images/frame_01102.png"
        string_val: "../data/Training/Run_0001/images/frame_01142.png"
        string_val: "../data/Training/Run_0001/images/frame_01447.png"
        string_val: "../data/Training/Run_0001/images/frame_03729.png"
        string_val: "../data/Training/Run_0001/images/frame_03435.png"
        string_val: "../data/Training/Run_0001/images/frame_04518.png"
        string_val: "../data/Training/Run_0001/images/frame_03300.png"
        string_val: "../data/Training/Run_0001/images/frame_04323.png"
        string_val: "../data/Training/Run_0001/images/frame_01867.png"
        string_val: "../data/Training/Run_0001/images/frame_03046.png"
        string_val: "../data/Training/Run_0001/images/frame_00625.png"
        string_val: "../data/Training/Run_0001/images/frame_02984.png"
        string_val: "../data/Training/Run_0001/images/frame_00518.png"
        string_val: "../data/Training/Run_0001/images/frame_00753.png"
        string_val: "../data/Training/Run_0001/images/frame_02156.png"
        string_val: "../data/Training/Run_0001/images/frame_03890.png"
        string_val: "../data/Training/Run_0001/images/frame_03708.png"
        string_val: "../data/Training/Run_0001/images/frame_01114.png"
        string_val: "../data/Training/Run_0001/images/frame_01923.png"
        string_val: "../data/Training/Run_0001/images/frame_02714.png"
        string_val: "../data/Training/Run_0001/images/frame_02994.png"
        string_val: "../data/Training/Run_0001/images/frame_01948.png"
        string_val: "../data/Training/Run_0001/images/frame_03939.png"
        string_val: "../data/Training/Run_0001/images/frame_02793.png"
        string_val: "../data/Training/Run_0001/images/frame_00174.png"
        string_val: "../data/Training/Run_0001/images/frame_01835.png"
        string_val: "../data/Training/Run_0001/images/frame_02715.png"
        string_val: "../data/Training/Run_0001/images/frame_04298.png"
        string_val: "../data/Training/Run_0001/images/frame_00954.png"
        string_val: "../data/Training/Run_0001/images/frame_01596.png"
        string_val: "../data/Training/Run_0001/images/frame_03052.png"
        string_val: "../data/Training/Run_0001/images/frame_02750.png"
        string_val: "../data/Training/Run_0001/images/frame_01237.png"
        string_val: "../data/Training/Run_0001/images/frame_02584.png"
        string_val: "../data/Training/Run_0001/images/frame_01883.png"
        string_val: "../data/Training/Run_0001/images/frame_01856.png"
        string_val: "../data/Training/Run_0001/images/frame_03057.png"
        string_val: "../data/Training/Run_0001/images/frame_04591.png"
        string_val: "../data/Training/Run_0001/images/frame_04627.png"
        string_val: "../data/Training/Run_0001/images/frame_02498.png"
        string_val: "../data/Training/Run_0001/images/frame_02433.png"
        string_val: "../data/Training/Run_0001/images/frame_00116.png"
        string_val: "../data/Training/Run_0001/images/frame_03280.png"
        string_val: "../data/Training/Run_0001/images/frame_04490.png"
        string_val: "../data/Training/Run_0001/images/frame_03170.png"
        string_val: "../data/Training/Run_0001/images/frame_02879.png"
        string_val: "../data/Training/Run_0001/images/frame_01312.png"
        string_val: "../data/Training/Run_0001/images/frame_03014.png"
        string_val: "../data/Training/Run_0001/images/frame_01063.png"
        string_val: "../data/Training/Run_0001/images/frame_01251.png"
        string_val: "../data/Training/Run_0001/images/frame_01962.png"
        string_val: "../data/Training/Run_0001/images/frame_04644.png"
        string_val: "../data/Training/Run_0001/images/frame_00946.png"
        string_val: "../data/Training/Run_0001/images/frame_03398.png"
        string_val: "../data/Training/Run_0001/images/frame_00862.png"
        string_val: "../data/Training/Run_0001/images/frame_02139.png"
        string_val: "../data/Training/Run_0001/images/frame_01644.png"
        string_val: "../data/Training/Run_0001/images/frame_00363.png"
        string_val: "../data/Training/Run_0001/images/frame_00855.png"
        string_val: "../data/Training/Run_0001/images/frame_02404.png"
        string_val: "../data/Training/Run_0001/images/frame_02706.png"
        string_val: "../data/Training/Run_0001/images/frame_02453.png"
        string_val: "../data/Training/Run_0001/images/frame_04299.png"
        string_val: "../data/Training/Run_0001/images/frame_03290.png"
        string_val: "../data/Training/Run_0001/images/frame_00600.png"
        string_val: "../data/Training/Run_0001/images/frame_02296.png"
        string_val: "../data/Training/Run_0001/images/frame_02106.png"
        string_val: "../data/Training/Run_0001/images/frame_03060.png"
        string_val: "../data/Training/Run_0001/images/frame_04498.png"
        string_val: "../data/Training/Run_0001/images/frame_01860.png"
        string_val: "../data/Training/Run_0001/images/frame_02271.png"
        string_val: "../data/Training/Run_0001/images/frame_01986.png"
        string_val: "../data/Training/Run_0001/images/frame_04001.png"
        string_val: "../data/Training/Run_0001/images/frame_00342.png"
        string_val: "../data/Training/Run_0001/images/frame_03279.png"
        string_val: "../data/Training/Run_0001/images/frame_02228.png"
        string_val: "../data/Training/Run_0001/images/frame_03370.png"
        string_val: "../data/Training/Run_0001/images/frame_01488.png"
        string_val: "../data/Training/Run_0001/images/frame_01861.png"
        string_val: "../data/Training/Run_0001/images/frame_04080.png"
        string_val: "../data/Training/Run_0001/images/frame_01136.png"
        string_val: "../data/Training/Run_0001/images/frame_01815.png"
        string_val: "../data/Training/Run_0001/images/frame_04229.png"
        string_val: "../data/Training/Run_0001/images/frame_02231.png"
        string_val: "../data/Training/Run_0001/images/frame_02132.png"
        string_val: "../data/Training/Run_0001/images/frame_03948.png"
        string_val: "../data/Training/Run_0001/images/frame_01730.png"
        string_val: "../data/Training/Run_0001/images/frame_03502.png"
        string_val: "../data/Training/Run_0001/images/frame_01181.png"
        string_val: "../data/Training/Run_0001/images/frame_03391.png"
        string_val: "../data/Training/Run_0001/images/frame_02906.png"
        string_val: "../data/Training/Run_0001/images/frame_04303.png"
        string_val: "../data/Training/Run_0001/images/frame_03979.png"
        string_val: "../data/Training/Run_0001/images/frame_00964.png"
        string_val: "../data/Training/Run_0001/images/frame_03774.png"
        string_val: "../data/Training/Run_0001/images/frame_02062.png"
        string_val: "../data/Training/Run_0001/images/frame_02980.png"
        string_val: "../data/Training/Run_0001/images/frame_04078.png"
        string_val: "../data/Training/Run_0001/images/frame_02619.png"
        string_val: "../data/Training/Run_0001/images/frame_00502.png"
        string_val: "../data/Training/Run_0001/images/frame_03846.png"
        string_val: "../data/Training/Run_0001/images/frame_03985.png"
        string_val: "../data/Training/Run_0001/images/frame_03123.png"
        string_val: "../data/Training/Run_0001/images/frame_03388.png"
        string_val: "../data/Training/Run_0001/images/frame_00528.png"
        string_val: "../data/Training/Run_0001/images/frame_01336.png"
        string_val: "../data/Training/Run_0001/images/frame_00708.png"
        string_val: "../data/Training/Run_0001/images/frame_03613.png"
        string_val: "../data/Training/Run_0001/images/frame_01754.png"
        string_val: "../data/Training/Run_0001/images/frame_00089.png"
        string_val: "../data/Training/Run_0001/images/frame_03823.png"
        string_val: "../data/Training/Run_0001/images/frame_01330.png"
        string_val: "../data/Training/Run_0001/images/frame_02638.png"
        string_val: "../data/Training/Run_0001/images/frame_04266.png"
        string_val: "../data/Training/Run_0001/images/frame_00327.png"
        string_val: "../data/Training/Run_0001/images/frame_00863.png"
        string_val: "../data/Training/Run_0001/images/frame_03673.png"
        string_val: "../data/Training/Run_0001/images/frame_04253.png"
        string_val: "../data/Training/Run_0001/images/frame_02805.png"
        string_val: "../data/Training/Run_0001/images/frame_02986.png"
        string_val: "../data/Training/Run_0001/images/frame_04189.png"
        string_val: "../data/Training/Run_0001/images/frame_04365.png"
        string_val: "../data/Training/Run_0001/images/frame_04596.png"
        string_val: "../data/Training/Run_0001/images/frame_02347.png"
        string_val: "../data/Training/Run_0001/images/frame_03420.png"
        string_val: "../data/Training/Run_0001/images/frame_03625.png"
        string_val: "../data/Training/Run_0001/images/frame_03441.png"
        string_val: "../data/Training/Run_0001/images/frame_04502.png"
        string_val: "../data/Training/Run_0001/images/frame_04287.png"
        string_val: "../data/Training/Run_0001/images/frame_03254.png"
        string_val: "../data/Training/Run_0001/images/frame_04580.png"
        string_val: "../data/Training/Run_0001/images/frame_03809.png"
        string_val: "../data/Training/Run_0001/images/frame_01786.png"
        string_val: "../data/Training/Run_0001/images/frame_00919.png"
        string_val: "../data/Training/Run_0001/images/frame_04210.png"
        string_val: "../data/Training/Run_0001/images/frame_00287.png"
        string_val: "../data/Training/Run_0001/images/frame_01540.png"
        string_val: "../data/Training/Run_0001/images/frame_02283.png"
        string_val: "../data/Training/Run_0001/images/frame_04419.png"
        string_val: "../data/Training/Run_0001/images/frame_01047.png"
        string_val: "../data/Training/Run_0001/images/frame_00748.png"
        string_val: "../data/Training/Run_0001/images/frame_04304.png"
        string_val: "../data/Training/Run_0001/images/frame_02676.png"
        string_val: "../data/Training/Run_0001/images/frame_01746.png"
        string_val: "../data/Training/Run_0001/images/frame_03556.png"
        string_val: "../data/Training/Run_0001/images/frame_01404.png"
        string_val: "../data/Training/Run_0001/images/frame_01843.png"
        string_val: "../data/Training/Run_0001/images/frame_02200.png"
        string_val: "../data/Training/Run_0001/images/frame_02604.png"
        string_val: "../data/Training/Run_0001/images/frame_04671.png"
        string_val: "../data/Training/Run_0001/images/frame_00656.png"
        string_val: "../data/Training/Run_0001/images/frame_04724.png"
        string_val: "../data/Training/Run_0001/images/frame_00168.png"
        string_val: "../data/Training/Run_0001/images/frame_03075.png"
        string_val: "../data/Training/Run_0001/images/frame_01388.png"
        string_val: "../data/Training/Run_0001/images/frame_02525.png"
        string_val: "../data/Training/Run_0001/images/frame_01273.png"
        string_val: "../data/Training/Run_0001/images/frame_01759.png"
        string_val: "../data/Training/Run_0001/images/frame_02513.png"
        string_val: "../data/Training/Run_0001/images/frame_01589.png"
        string_val: "../data/Training/Run_0001/images/frame_02795.png"
        string_val: "../data/Training/Run_0001/images/frame_00761.png"
        string_val: "../data/Training/Run_0001/images/frame_01523.png"
        string_val: "../data/Training/Run_0001/images/frame_03936.png"
        string_val: "../data/Training/Run_0001/images/frame_00144.png"
        string_val: "../data/Training/Run_0001/images/frame_02503.png"
        string_val: "../data/Training/Run_0001/images/frame_03734.png"
        string_val: "../data/Training/Run_0001/images/frame_00727.png"
        string_val: "../data/Training/Run_0001/images/frame_01725.png"
        string_val: "../data/Training/Run_0001/images/frame_02395.png"
        string_val: "../data/Training/Run_0001/images/frame_02740.png"
        string_val: "../data/Training/Run_0001/images/frame_04398.png"
        string_val: "../data/Training/Run_0001/images/frame_04043.png"
        string_val: "../data/Training/Run_0001/images/frame_01778.png"
        string_val: "../data/Training/Run_0001/images/frame_03494.png"
        string_val: "../data/Training/Run_0001/images/frame_04407.png"
        string_val: "../data/Training/Run_0001/images/frame_01431.png"
        string_val: "../data/Training/Run_0001/images/frame_02673.png"
        string_val: "../data/Training/Run_0001/images/frame_00353.png"
        string_val: "../data/Training/Run_0001/images/frame_04500.png"
        string_val: "../data/Training/Run_0001/images/frame_00438.png"
        string_val: "../data/Training/Run_0001/images/frame_02212.png"
        string_val: "../data/Training/Run_0001/images/frame_01726.png"
        string_val: "../data/Training/Run_0001/images/frame_02660.png"
        string_val: "../data/Training/Run_0001/images/frame_01320.png"
        string_val: "../data/Training/Run_0001/images/frame_01140.png"
        string_val: "../data/Training/Run_0001/images/frame_01357.png"
        string_val: "../data/Training/Run_0001/images/frame_03305.png"
        string_val: "../data/Training/Run_0001/images/frame_01458.png"
        string_val: "../data/Training/Run_0001/images/frame_02801.png"
        string_val: "../data/Training/Run_0001/images/frame_03872.png"
        string_val: "../data/Training/Run_0001/images/frame_00017.png"
        string_val: "../data/Training/Run_0001/images/frame_04141.png"
        string_val: "../data/Training/Run_0001/images/frame_00390.png"
        string_val: "../data/Training/Run_0001/images/frame_03055.png"
        string_val: "../data/Training/Run_0001/images/frame_02996.png"
        string_val: "../data/Training/Run_0001/images/frame_04139.png"
        string_val: "../data/Training/Run_0001/images/frame_03583.png"
        string_val: "../data/Training/Run_0001/images/frame_00889.png"
        string_val: "../data/Training/Run_0001/images/frame_01013.png"
        string_val: "../data/Training/Run_0001/images/frame_03827.png"
        string_val: "../data/Training/Run_0001/images/frame_00208.png"
        string_val: "../data/Training/Run_0001/images/frame_04233.png"
        string_val: "../data/Training/Run_0001/images/frame_01727.png"
        string_val: "../data/Training/Run_0001/images/frame_04714.png"
        string_val: "../data/Training/Run_0001/images/frame_04573.png"
        string_val: "../data/Training/Run_0001/images/frame_02946.png"
        string_val: "../data/Training/Run_0001/images/frame_04451.png"
        string_val: "../data/Training/Run_0001/images/frame_03371.png"
        string_val: "../data/Training/Run_0001/images/frame_03261.png"
        string_val: "../data/Training/Run_0001/images/frame_03844.png"
        string_val: "../data/Training/Run_0001/images/frame_01822.png"
        string_val: "../data/Training/Run_0001/images/frame_03129.png"
        string_val: "../data/Training/Run_0001/images/frame_00462.png"
        string_val: "../data/Training/Run_0001/images/frame_01153.png"
        string_val: "../data/Training/Run_0001/images/frame_03591.png"
        string_val: "../data/Training/Run_0001/images/frame_04520.png"
        string_val: "../data/Training/Run_0001/images/frame_04290.png"
        string_val: "../data/Training/Run_0001/images/frame_02919.png"
        string_val: "../data/Training/Run_0001/images/frame_03905.png"
        string_val: "../data/Training/Run_0001/images/frame_00801.png"
        string_val: "../data/Training/Run_0001/images/frame_04194.png"
        string_val: "../data/Training/Run_0001/images/frame_01016.png"
        string_val: "../data/Training/Run_0001/images/frame_00657.png"
        string_val: "../data/Training/Run_0001/images/frame_01825.png"
        string_val: "../data/Training/Run_0001/images/frame_03318.png"
        string_val: "../data/Training/Run_0001/images/frame_00972.png"
        string_val: "../data/Training/Run_0001/images/frame_02144.png"
        string_val: "../data/Training/Run_0001/images/frame_01863.png"
        string_val: "../data/Training/Run_0001/images/frame_03576.png"
        string_val: "../data/Training/Run_0001/images/frame_00953.png"
        string_val: "../data/Training/Run_0001/images/frame_02521.png"
        string_val: "../data/Training/Run_0001/images/frame_04410.png"
        string_val: "../data/Training/Run_0001/images/frame_01599.png"
        string_val: "../data/Training/Run_0001/images/frame_00083.png"
        string_val: "../data/Training/Run_0001/images/frame_03778.png"
        string_val: "../data/Training/Run_0001/images/frame_01615.png"
        string_val: "../data/Training/Run_0001/images/frame_01045.png"
        string_val: "../data/Training/Run_0001/images/frame_04560.png"
        string_val: "../data/Training/Run_0001/images/frame_04509.png"
        string_val: "../data/Training/Run_0001/images/frame_02238.png"
        string_val: "../data/Training/Run_0001/images/frame_01762.png"
        string_val: "../data/Training/Run_0001/images/frame_04041.png"
        string_val: "../data/Training/Run_0001/images/frame_01874.png"
        string_val: "../data/Training/Run_0001/images/frame_02329.png"
        string_val: "../data/Training/Run_0001/images/frame_00763.png"
        string_val: "../data/Training/Run_0001/images/frame_02601.png"
        string_val: "../data/Training/Run_0001/images/frame_00822.png"
        string_val: "../data/Training/Run_0001/images/frame_04125.png"
        string_val: "../data/Training/Run_0001/images/frame_01270.png"
        string_val: "../data/Training/Run_0001/images/frame_03405.png"
        string_val: "../data/Training/Run_0001/images/frame_02311.png"
        string_val: "../data/Training/Run_0001/images/frame_03554.png"
        string_val: "../data/Training/Run_0001/images/frame_03106.png"
        string_val: "../data/Training/Run_0001/images/frame_01101.png"
        string_val: "../data/Training/Run_0001/images/frame_02170.png"
        string_val: "../data/Training/Run_0001/images/frame_00198.png"
        string_val: "../data/Training/Run_0001/images/frame_01849.png"
        string_val: "../data/Training/Run_0001/images/frame_02198.png"
        string_val: "../data/Training/Run_0001/images/frame_02018.png"
        string_val: "../data/Training/Run_0001/images/frame_02376.png"
        string_val: "../data/Training/Run_0001/images/frame_02005.png"
        string_val: "../data/Training/Run_0001/images/frame_03549.png"
        string_val: "../data/Training/Run_0001/images/frame_04251.png"
        string_val: "../data/Training/Run_0001/images/frame_04169.png"
        string_val: "../data/Training/Run_0001/images/frame_01885.png"
        string_val: "../data/Training/Run_0001/images/frame_01406.png"
        string_val: "../data/Training/Run_0001/images/frame_00259.png"
        string_val: "../data/Training/Run_0001/images/frame_00999.png"
        string_val: "../data/Training/Run_0001/images/frame_02647.png"
        string_val: "../data/Training/Run_0001/images/frame_01094.png"
        string_val: "../data/Training/Run_0001/images/frame_02054.png"
        string_val: "../data/Training/Run_0001/images/frame_03349.png"
        string_val: "../data/Training/Run_0001/images/frame_03988.png"
        string_val: "../data/Training/Run_0001/images/frame_03592.png"
        string_val: "../data/Training/Run_0001/images/frame_03626.png"
        string_val: "../data/Training/Run_0001/images/frame_00044.png"
        string_val: "../data/Training/Run_0001/images/frame_01567.png"
        string_val: "../data/Training/Run_0001/images/frame_00542.png"
        string_val: "../data/Training/Run_0001/images/frame_01250.png"
        string_val: "../data/Training/Run_0001/images/frame_02191.png"
        string_val: "../data/Training/Run_0001/images/frame_01015.png"
        string_val: "../data/Training/Run_0001/images/frame_00244.png"
        string_val: "../data/Training/Run_0001/images/frame_03786.png"
        string_val: "../data/Training/Run_0001/images/frame_01817.png"
        string_val: "../data/Training/Run_0001/images/frame_04477.png"
        string_val: "../data/Training/Run_0001/images/frame_04604.png"
        string_val: "../data/Training/Run_0001/images/frame_01850.png"
        string_val: "../data/Training/Run_0001/images/frame_01400.png"
        string_val: "../data/Training/Run_0001/images/frame_03962.png"
        string_val: "../data/Training/Run_0001/images/frame_00585.png"
        string_val: "../data/Training/Run_0001/images/frame_02495.png"
        string_val: "../data/Training/Run_0001/images/frame_04261.png"
        string_val: "../data/Training/Run_0001/images/frame_04606.png"
        string_val: "../data/Training/Run_0001/images/frame_04209.png"
        string_val: "../data/Training/Run_0001/images/frame_03413.png"
        string_val: "../data/Training/Run_0001/images/frame_03632.png"
        string_val: "../data/Training/Run_0001/images/frame_04677.png"
        string_val: "../data/Training/Run_0001/images/frame_01212.png"
        string_val: "../data/Training/Run_0001/images/frame_00312.png"
        string_val: "../data/Training/Run_0001/images/frame_03160.png"
        string_val: "../data/Training/Run_0001/images/frame_04694.png"
        string_val: "../data/Training/Run_0001/images/frame_00162.png"
        string_val: "../data/Training/Run_0001/images/frame_03008.png"
        string_val: "../data/Training/Run_0001/images/frame_00030.png"
        string_val: "../data/Training/Run_0001/images/frame_03365.png"
        string_val: "../data/Training/Run_0001/images/frame_01083.png"
        string_val: "../data/Training/Run_0001/images/frame_02887.png"
        string_val: "../data/Training/Run_0001/images/frame_04256.png"
        string_val: "../data/Training/Run_0001/images/frame_00983.png"
        string_val: "../data/Training/Run_0001/images/frame_04207.png"
        string_val: "../data/Training/Run_0001/images/frame_01678.png"
        string_val: "../data/Training/Run_0001/images/frame_01259.png"
        string_val: "../data/Training/Run_0001/images/frame_00068.png"
        string_val: "../data/Training/Run_0001/images/frame_00739.png"
        string_val: "../data/Training/Run_0001/images/frame_01669.png"
        string_val: "../data/Training/Run_0001/images/frame_03526.png"
        string_val: "../data/Training/Run_0001/images/frame_02169.png"
        string_val: "../data/Training/Run_0001/images/frame_02598.png"
        string_val: "../data/Training/Run_0001/images/frame_03219.png"
        string_val: "../data/Training/Run_0001/images/frame_01154.png"
        string_val: "../data/Training/Run_0001/images/frame_02884.png"
        string_val: "../data/Training/Run_0001/images/frame_01536.png"
        string_val: "../data/Training/Run_0001/images/frame_02913.png"
        string_val: "../data/Training/Run_0001/images/frame_01530.png"
        string_val: "../data/Training/Run_0001/images/frame_01583.png"
        string_val: "../data/Training/Run_0001/images/frame_03244.png"
        string_val: "../data/Training/Run_0001/images/frame_03541.png"
        string_val: "../data/Training/Run_0001/images/frame_01147.png"
        string_val: "../data/Training/Run_0001/images/frame_04213.png"
        string_val: "../data/Training/Run_0001/images/frame_00885.png"
        string_val: "../data/Training/Run_0001/images/frame_02914.png"
        string_val: "../data/Training/Run_0001/images/frame_04597.png"
        string_val: "../data/Training/Run_0001/images/frame_02578.png"
        string_val: "../data/Training/Run_0001/images/frame_03076.png"
        string_val: "../data/Training/Run_0001/images/frame_02199.png"
        string_val: "../data/Training/Run_0001/images/frame_01947.png"
        string_val: "../data/Training/Run_0001/images/frame_04496.png"
        string_val: "../data/Training/Run_0001/images/frame_04109.png"
        string_val: "../data/Training/Run_0001/images/frame_00787.png"
        string_val: "../data/Training/Run_0001/images/frame_03209.png"
        string_val: "../data/Training/Run_0001/images/frame_04343.png"
        string_val: "../data/Training/Run_0001/images/frame_00347.png"
        string_val: "../data/Training/Run_0001/images/frame_04089.png"
        string_val: "../data/Training/Run_0001/images/frame_04217.png"
        string_val: "../data/Training/Run_0001/images/frame_01129.png"
        string_val: "../data/Training/Run_0001/images/frame_04308.png"
        string_val: "../data/Training/Run_0001/images/frame_04023.png"
        string_val: "../data/Training/Run_0001/images/frame_00944.png"
        string_val: "../data/Training/Run_0001/images/frame_02789.png"
        string_val: "../data/Training/Run_0001/images/frame_03025.png"
        string_val: "../data/Training/Run_0001/images/frame_02708.png"
        string_val: "../data/Training/Run_0001/images/frame_02366.png"
        string_val: "../data/Training/Run_0001/images/frame_02086.png"
        string_val: "../data/Training/Run_0001/images/frame_00865.png"
        string_val: "../data/Training/Run_0001/images/frame_01449.png"
        string_val: "../data/Training/Run_0001/images/frame_03744.png"
        string_val: "../data/Training/Run_0001/images/frame_04556.png"
        string_val: "../data/Training/Run_0001/images/frame_01482.png"
        string_val: "../data/Training/Run_0001/images/frame_01873.png"
        string_val: "../data/Training/Run_0001/images/frame_00276.png"
        string_val: "../data/Training/Run_0001/images/frame_01394.png"
        string_val: "../data/Training/Run_0001/images/frame_02644.png"
        string_val: "../data/Training/Run_0001/images/frame_01470.png"
        string_val: "../data/Training/Run_0001/images/frame_00487.png"
        string_val: "../data/Training/Run_0001/images/frame_01377.png"
        string_val: "../data/Training/Run_0001/images/frame_04124.png"
        string_val: "../data/Training/Run_0001/images/frame_01208.png"
        string_val: "../data/Training/Run_0001/images/frame_03403.png"
        string_val: "../data/Training/Run_0001/images/frame_04296.png"
        string_val: "../data/Training/Run_0001/images/frame_00947.png"
        string_val: "../data/Training/Run_0001/images/frame_00826.png"
        string_val: "../data/Training/Run_0001/images/frame_01633.png"
        string_val: "../data/Training/Run_0001/images/frame_02410.png"
        string_val: "../data/Training/Run_0001/images/frame_02011.png"
        string_val: "../data/Training/Run_0001/images/frame_02745.png"
        string_val: "../data/Training/Run_0001/images/frame_03498.png"
        string_val: "../data/Training/Run_0001/images/frame_03784.png"
        string_val: "../data/Training/Run_0001/images/frame_02000.png"
        string_val: "../data/Training/Run_0001/images/frame_04388.png"
        string_val: "../data/Training/Run_0001/images/frame_01219.png"
        string_val: "../data/Training/Run_0001/images/frame_04434.png"
        string_val: "../data/Training/Run_0001/images/frame_00941.png"
        string_val: "../data/Training/Run_0001/images/frame_03478.png"
        string_val: "../data/Training/Run_0001/images/frame_04053.png"
        string_val: "../data/Training/Run_0001/images/frame_00651.png"
        string_val: "../data/Training/Run_0001/images/frame_02120.png"
        string_val: "../data/Training/Run_0001/images/frame_00303.png"
        string_val: "../data/Training/Run_0001/images/frame_00937.png"
        string_val: "../data/Training/Run_0001/images/frame_04417.png"
        string_val: "../data/Training/Run_0001/images/frame_02517.png"
        string_val: "../data/Training/Run_0001/images/frame_00361.png"
        string_val: "../data/Training/Run_0001/images/frame_00429.png"
        string_val: "../data/Training/Run_0001/images/frame_01366.png"
        string_val: "../data/Training/Run_0001/images/frame_01294.png"
        string_val: "../data/Training/Run_0001/images/frame_02360.png"
        string_val: "../data/Training/Run_0001/images/frame_01370.png"
        string_val: "../data/Training/Run_0001/images/frame_02465.png"
        string_val: "../data/Training/Run_0001/images/frame_02667.png"
        string_val: "../data/Training/Run_0001/images/frame_03845.png"
        string_val: "../data/Training/Run_0001/images/frame_03835.png"
        string_val: "../data/Training/Run_0001/images/frame_00223.png"
        string_val: "../data/Training/Run_0001/images/frame_01429.png"
        string_val: "../data/Training/Run_0001/images/frame_04273.png"
        string_val: "../data/Training/Run_0001/images/frame_01613.png"
        string_val: "../data/Training/Run_0001/images/frame_04049.png"
        string_val: "../data/Training/Run_0001/images/frame_01479.png"
        string_val: "../data/Training/Run_0001/images/frame_04264.png"
        string_val: "../data/Training/Run_0001/images/frame_00200.png"
        string_val: "../data/Training/Run_0001/images/frame_01902.png"
        string_val: "../data/Training/Run_0001/images/frame_01395.png"
        string_val: "../data/Training/Run_0001/images/frame_02478.png"
        string_val: "../data/Training/Run_0001/images/frame_02533.png"
        string_val: "../data/Training/Run_0001/images/frame_00035.png"
        string_val: "../data/Training/Run_0001/images/frame_01584.png"
        string_val: "../data/Training/Run_0001/images/frame_02260.png"
        string_val: "../data/Training/Run_0001/images/frame_01236.png"
        string_val: "../data/Training/Run_0001/images/frame_03971.png"
        string_val: "../data/Training/Run_0001/images/frame_03533.png"
        string_val: "../data/Training/Run_0001/images/frame_00581.png"
        string_val: "../data/Training/Run_0001/images/frame_00804.png"
        string_val: "../data/Training/Run_0001/images/frame_03044.png"
        string_val: "../data/Training/Run_0001/images/frame_02554.png"
        string_val: "../data/Training/Run_0001/images/frame_04465.png"
        string_val: "../data/Training/Run_0001/images/frame_00615.png"
        string_val: "../data/Training/Run_0001/images/frame_03653.png"
        string_val: "../data/Training/Run_0001/images/frame_03879.png"
        string_val: "../data/Training/Run_0001/images/frame_01354.png"
        string_val: "../data/Training/Run_0001/images/frame_04711.png"
        string_val: "../data/Training/Run_0001/images/frame_02325.png"
        string_val: "../data/Training/Run_0001/images/frame_04620.png"
        string_val: "../data/Training/Run_0001/images/frame_04254.png"
        string_val: "../data/Training/Run_0001/images/frame_04238.png"
        string_val: "../data/Training/Run_0001/images/frame_03005.png"
        string_val: "../data/Training/Run_0001/images/frame_03258.png"
        string_val: "../data/Training/Run_0001/images/frame_01362.png"
        string_val: "../data/Training/Run_0001/images/frame_00107.png"
        string_val: "../data/Training/Run_0001/images/frame_03944.png"
        string_val: "../data/Training/Run_0001/images/frame_00960.png"
        string_val: "../data/Training/Run_0001/images/frame_02154.png"
        string_val: "../data/Training/Run_0001/images/frame_03217.png"
        string_val: "../data/Training/Run_0001/images/frame_03181.png"
        string_val: "../data/Training/Run_0001/images/frame_01612.png"
        string_val: "../data/Training/Run_0001/images/frame_02157.png"
        string_val: "../data/Training/Run_0001/images/frame_03853.png"
        string_val: "../data/Training/Run_0001/images/frame_01831.png"
        string_val: "../data/Training/Run_0001/images/frame_01281.png"
        string_val: "../data/Training/Run_0001/images/frame_03957.png"
        string_val: "../data/Training/Run_0001/images/frame_03108.png"
        string_val: "../data/Training/Run_0001/images/frame_01489.png"
        string_val: "../data/Training/Run_0001/images/frame_02487.png"
        string_val: "../data/Training/Run_0001/images/frame_04033.png"
        string_val: "../data/Training/Run_0001/images/frame_00679.png"
        string_val: "../data/Training/Run_0001/images/frame_01050.png"
        string_val: "../data/Training/Run_0001/images/frame_01974.png"
        string_val: "../data/Training/Run_0001/images/frame_04135.png"
        string_val: "../data/Training/Run_0001/images/frame_01117.png"
        string_val: "../data/Training/Run_0001/images/frame_03748.png"
        string_val: "../data/Training/Run_0001/images/frame_03030.png"
        string_val: "../data/Training/Run_0001/images/frame_03185.png"
        string_val: "../data/Training/Run_0001/images/frame_02728.png"
        string_val: "../data/Training/Run_0001/images/frame_01803.png"
        string_val: "../data/Training/Run_0001/images/frame_00742.png"
        string_val: "../data/Training/Run_0001/images/frame_01674.png"
        string_val: "../data/Training/Run_0001/images/frame_00053.png"
        string_val: "../data/Training/Run_0001/images/frame_02475.png"
        string_val: "../data/Training/Run_0001/images/frame_04510.png"
        string_val: "../data/Training/Run_0001/images/frame_04676.png"
        string_val: "../data/Training/Run_0001/images/frame_03201.png"
        string_val: "../data/Training/Run_0001/images/frame_00773.png"
        string_val: "../data/Training/Run_0001/images/frame_00150.png"
        string_val: "../data/Training/Run_0001/images/frame_03058.png"
        string_val: "../data/Training/Run_0001/images/frame_04227.png"
        string_val: "../data/Training/Run_0001/images/frame_03649.png"
        string_val: "../data/Training/Run_0001/images/frame_04435.png"
        string_val: "../data/Training/Run_0001/images/frame_03196.png"
        string_val: "../data/Training/Run_0001/images/frame_00900.png"
        string_val: "../data/Training/Run_0001/images/frame_03426.png"
        string_val: "../data/Training/Run_0001/images/frame_02871.png"
        string_val: "../data/Training/Run_0001/images/frame_02307.png"
        string_val: "../data/Training/Run_0001/images/frame_03701.png"
        string_val: "../data/Training/Run_0001/images/frame_02766.png"
        string_val: "../data/Training/Run_0001/images/frame_02823.png"
        string_val: "../data/Training/Run_0001/images/frame_04195.png"
        string_val: "../data/Training/Run_0001/images/frame_02551.png"
        string_val: "../data/Training/Run_0001/images/frame_01605.png"
        string_val: "../data/Training/Run_0001/images/frame_03332.png"
        string_val: "../data/Training/Run_0001/images/frame_00368.png"
        string_val: "../data/Training/Run_0001/images/frame_04615.png"
        string_val: "../data/Training/Run_0001/images/frame_02110.png"
        string_val: "../data/Training/Run_0001/images/frame_04557.png"
        string_val: "../data/Training/Run_0001/images/frame_00443.png"
        string_val: "../data/Training/Run_0001/images/frame_00932.png"
        string_val: "../data/Training/Run_0001/images/frame_01607.png"
        string_val: "../data/Training/Run_0001/images/frame_02716.png"
        string_val: "../data/Training/Run_0001/images/frame_04221.png"
        string_val: "../data/Training/Run_0001/images/frame_00842.png"
        string_val: "../data/Training/Run_0001/images/frame_03915.png"
        string_val: "../data/Training/Run_0001/images/frame_02205.png"
        string_val: "../data/Training/Run_0001/images/frame_04232.png"
        string_val: "../data/Training/Run_0001/images/frame_02853.png"
        string_val: "../data/Training/Run_0001/images/frame_00261.png"
        string_val: "../data/Training/Run_0001/images/frame_03545.png"
        string_val: "../data/Training/Run_0001/images/frame_01269.png"
        string_val: "../data/Training/Run_0001/images/frame_02704.png"
        string_val: "../data/Training/Run_0001/images/frame_02700.png"
        string_val: "../data/Training/Run_0001/images/frame_02058.png"
        string_val: "../data/Training/Run_0001/images/frame_02610.png"
        string_val: "../data/Training/Run_0001/images/frame_00014.png"
        string_val: "../data/Training/Run_0001/images/frame_00802.png"
        string_val: "../data/Training/Run_0001/images/frame_01787.png"
        string_val: "../data/Training/Run_0001/images/frame_00825.png"
        string_val: "../data/Training/Run_0001/images/frame_01580.png"
        string_val: "../data/Training/Run_0001/images/frame_04255.png"
        string_val: "../data/Training/Run_0001/images/frame_01594.png"
        string_val: "../data/Training/Run_0001/images/frame_02779.png"
        string_val: "../data/Training/Run_0001/images/frame_02520.png"
        string_val: "../data/Training/Run_0001/images/frame_02375.png"
        string_val: "../data/Training/Run_0001/images/frame_03416.png"
        string_val: "../data/Training/Run_0001/images/frame_00464.png"
        string_val: "../data/Training/Run_0001/images/frame_02474.png"
        string_val: "../data/Training/Run_0001/images/frame_03764.png"
        string_val: "../data/Training/Run_0001/images/frame_03353.png"
        string_val: "../data/Training/Run_0001/images/frame_04487.png"
        string_val: "../data/Training/Run_0001/images/frame_03277.png"
        string_val: "../data/Training/Run_0001/images/frame_02388.png"
        string_val: "../data/Training/Run_0001/images/frame_04458.png"
        string_val: "../data/Training/Run_0001/images/frame_00595.png"
        string_val: "../data/Training/Run_0001/images/frame_03272.png"
        string_val: "../data/Training/Run_0001/images/frame_04250.png"
        string_val: "../data/Training/Run_0001/images/frame_02907.png"
        string_val: "../data/Training/Run_0001/images/frame_02556.png"
        string_val: "../data/Training/Run_0001/images/frame_01862.png"
        string_val: "../data/Training/Run_0001/images/frame_03492.png"
        string_val: "../data/Training/Run_0001/images/frame_03020.png"
        string_val: "../data/Training/Run_0001/images/frame_03079.png"
        string_val: "../data/Training/Run_0001/images/frame_02019.png"
        string_val: "../data/Training/Run_0001/images/frame_00399.png"
        string_val: "../data/Training/Run_0001/images/frame_01999.png"
        string_val: "../data/Training/Run_0001/images/frame_01368.png"
        string_val: "../data/Training/Run_0001/images/frame_03477.png"
        string_val: "../data/Training/Run_0001/images/frame_03343.png"
        string_val: "../data/Training/Run_0001/images/frame_00878.png"
        string_val: "../data/Training/Run_0001/images/frame_03508.png"
        string_val: "../data/Training/Run_0001/images/frame_00519.png"
        string_val: "../data/Training/Run_0001/images/frame_00189.png"
        string_val: "../data/Training/Run_0001/images/frame_03086.png"
        string_val: "../data/Training/Run_0001/images/frame_04175.png"
        string_val: "../data/Training/Run_0001/images/frame_02678.png"
        string_val: "../data/Training/Run_0001/images/frame_01304.png"
        string_val: "../data/Training/Run_0001/images/frame_04701.png"
        string_val: "../data/Training/Run_0001/images/frame_01446.png"
        string_val: "../data/Training/Run_0001/images/frame_04236.png"
        string_val: "../data/Training/Run_0001/images/frame_03645.png"
        string_val: "../data/Training/Run_0001/images/frame_03100.png"
        string_val: "../data/Training/Run_0001/images/frame_03467.png"
        string_val: "../data/Training/Run_0001/images/frame_00229.png"
        string_val: "../data/Training/Run_0001/images/frame_03829.png"
        string_val: "../data/Training/Run_0001/images/frame_04680.png"
        string_val: "../data/Training/Run_0001/images/frame_02315.png"
        string_val: "../data/Training/Run_0001/images/frame_01891.png"
        string_val: "../data/Training/Run_0001/images/frame_02153.png"
        string_val: "../data/Training/Run_0001/images/frame_03469.png"
        string_val: "../data/Training/Run_0001/images/frame_02773.png"
        string_val: "../data/Training/Run_0001/images/frame_02954.png"
        string_val: "../data/Training/Run_0001/images/frame_02289.png"
        string_val: "../data/Training/Run_0001/images/frame_00730.png"
        string_val: "../data/Training/Run_0001/images/frame_01854.png"
        string_val: "../data/Training/Run_0001/images/frame_00028.png"
        string_val: "../data/Training/Run_0001/images/frame_01166.png"
        string_val: "../data/Training/Run_0001/images/frame_00193.png"
        string_val: "../data/Training/Run_0001/images/frame_00396.png"
        string_val: "../data/Training/Run_0001/images/frame_02168.png"
        string_val: "../data/Training/Run_0001/images/frame_03351.png"
        string_val: "../data/Training/Run_0001/images/frame_02900.png"
        string_val: "../data/Training/Run_0001/images/frame_01704.png"
        string_val: "../data/Training/Run_0001/images/frame_02015.png"
        string_val: "../data/Training/Run_0001/images/frame_01798.png"
        string_val: "../data/Training/Run_0001/images/frame_03141.png"
        string_val: "../data/Training/Run_0001/images/frame_02008.png"
        string_val: "../data/Training/Run_0001/images/frame_01799.png"
        string_val: "../data/Training/Run_0001/images/frame_02963.png"
        string_val: "../data/Training/Run_0001/images/frame_02386.png"
        string_val: "../data/Training/Run_0001/images/frame_00124.png"
        string_val: "../data/Training/Run_0001/images/frame_03813.png"
        string_val: "../data/Training/Run_0001/images/frame_00772.png"
        string_val: "../data/Training/Run_0001/images/frame_03730.png"
        string_val: "../data/Training/Run_0001/images/frame_01334.png"
        string_val: "../data/Training/Run_0001/images/frame_02398.png"
        string_val: "../data/Training/Run_0001/images/frame_01872.png"
        string_val: "../data/Training/Run_0001/images/frame_03071.png"
        string_val: "../data/Training/Run_0001/images/frame_02101.png"
        string_val: "../data/Training/Run_0001/images/frame_02023.png"
        string_val: "../data/Training/Run_0001/images/frame_00346.png"
        string_val: "../data/Training/Run_0001/images/frame_02934.png"
        string_val: "../data/Training/Run_0001/images/frame_03287.png"
        string_val: "../data/Training/Run_0001/images/frame_01511.png"
        string_val: "../data/Training/Run_0001/images/frame_04134.png"
        string_val: "../data/Training/Run_0001/images/frame_00063.png"
        string_val: "../data/Training/Run_0001/images/frame_04294.png"
        string_val: "../data/Training/Run_0001/images/frame_04312.png"
        string_val: "../data/Training/Run_0001/images/frame_03993.png"
        string_val: "../data/Training/Run_0001/images/frame_04208.png"
        string_val: "../data/Training/Run_0001/images/frame_03975.png"
        string_val: "../data/Training/Run_0001/images/frame_04446.png"
        string_val: "../data/Training/Run_0001/images/frame_01700.png"
        string_val: "../data/Training/Run_0001/images/frame_03414.png"
        string_val: "../data/Training/Run_0001/images/frame_00627.png"
        string_val: "../data/Training/Run_0001/images/frame_01283.png"
        string_val: "../data/Training/Run_0001/images/frame_01821.png"
        string_val: "../data/Training/Run_0001/images/frame_02293.png"
        string_val: "../data/Training/Run_0001/images/frame_03680.png"
        string_val: "../data/Training/Run_0001/images/frame_01290.png"
        string_val: "../data/Training/Run_0001/images/frame_02342.png"
        string_val: "../data/Training/Run_0001/images/frame_01391.png"
        string_val: "../data/Training/Run_0001/images/frame_01882.png"
        string_val: "../data/Training/Run_0001/images/frame_03765.png"
        string_val: "../data/Training/Run_0001/images/frame_00712.png"
        string_val: "../data/Training/Run_0001/images/frame_01808.png"
        string_val: "../data/Training/Run_0001/images/frame_02431.png"
        string_val: "../data/Training/Run_0001/images/frame_03372.png"
        string_val: "../data/Training/Run_0001/images/frame_02709.png"
        string_val: "../data/Training/Run_0001/images/frame_01415.png"
        string_val: "../data/Training/Run_0001/images/frame_00868.png"
        string_val: "../data/Training/Run_0001/images/frame_04650.png"
        string_val: "../data/Training/Run_0001/images/frame_00858.png"
        string_val: "../data/Training/Run_0001/images/frame_01907.png"
        string_val: "../data/Training/Run_0001/images/frame_02777.png"
        string_val: "../data/Training/Run_0001/images/frame_00538.png"
        string_val: "../data/Training/Run_0001/images/frame_03459.png"
        string_val: "../data/Training/Run_0001/images/frame_03037.png"
        string_val: "../data/Training/Run_0001/images/frame_04340.png"
        string_val: "../data/Training/Run_0001/images/frame_01681.png"
        string_val: "../data/Training/Run_0001/images/frame_03777.png"
        string_val: "../data/Training/Run_0001/images/frame_02074.png"
        string_val: "../data/Training/Run_0001/images/frame_04176.png"
        string_val: "../data/Training/Run_0001/images/frame_02957.png"
        string_val: "../data/Training/Run_0001/images/frame_01658.png"
        string_val: "../data/Training/Run_0001/images/frame_00957.png"
        string_val: "../data/Training/Run_0001/images/frame_04585.png"
        string_val: "../data/Training/Run_0001/images/frame_01218.png"
        string_val: "../data/Training/Run_0001/images/frame_02683.png"
        string_val: "../data/Training/Run_0001/images/frame_01627.png"
        string_val: "../data/Training/Run_0001/images/frame_03179.png"
        string_val: "../data/Training/Run_0001/images/frame_01745.png"
        string_val: "../data/Training/Run_0001/images/frame_00744.png"
        string_val: "../data/Training/Run_0001/images/frame_02971.png"
        string_val: "../data/Training/Run_0001/images/frame_03590.png"
        string_val: "../data/Training/Run_0001/images/frame_00291.png"
        string_val: "../data/Training/Run_0001/images/frame_02119.png"
        string_val: "../data/Training/Run_0001/images/frame_02422.png"
        string_val: "../data/Training/Run_0001/images/frame_02492.png"
        string_val: "../data/Training/Run_0001/images/frame_00684.png"
        string_val: "../data/Training/Run_0001/images/frame_00135.png"
        string_val: "../data/Training/Run_0001/images/frame_00605.png"
        string_val: "../data/Training/Run_0001/images/frame_00658.png"
        string_val: "../data/Training/Run_0001/images/frame_03003.png"
        string_val: "../data/Training/Run_0001/images/frame_03173.png"
        string_val: "../data/Training/Run_0001/images/frame_04332.png"
        string_val: "../data/Training/Run_0001/images/frame_03911.png"
        string_val: "../data/Training/Run_0001/images/frame_02216.png"
        string_val: "../data/Training/Run_0001/images/frame_02564.png"
        string_val: "../data/Training/Run_0001/images/frame_02794.png"
        string_val: "../data/Training/Run_0001/images/frame_00640.png"
        string_val: "../data/Training/Run_0001/images/frame_02684.png"
        string_val: "../data/Training/Run_0001/images/frame_04022.png"
        string_val: "../data/Training/Run_0001/images/frame_04718.png"
        string_val: "../data/Training/Run_0001/images/frame_02213.png"
        string_val: "../data/Training/Run_0001/images/frame_02402.png"
        string_val: "../data/Training/Run_0001/images/frame_03966.png"
        string_val: "../data/Training/Run_0001/images/frame_01702.png"
        string_val: "../data/Training/Run_0001/images/frame_03364.png"
        string_val: "../data/Training/Run_0001/images/frame_01716.png"
        string_val: "../data/Training/Run_0001/images/frame_00714.png"
        string_val: "../data/Training/Run_0001/images/frame_00866.png"
        string_val: "../data/Training/Run_0001/images/frame_00631.png"
        string_val: "../data/Training/Run_0001/images/frame_00374.png"
        string_val: "../data/Training/Run_0001/images/frame_04192.png"
        string_val: "../data/Training/Run_0001/images/frame_01146.png"
        string_val: "../data/Training/Run_0001/images/frame_01246.png"
        string_val: "../data/Training/Run_0001/images/frame_02611.png"
        string_val: "../data/Training/Run_0001/images/frame_01913.png"
        string_val: "../data/Training/Run_0001/images/frame_02098.png"
        string_val: "../data/Training/Run_0001/images/frame_01938.png"
        string_val: "../data/Training/Run_0001/images/frame_04218.png"
        string_val: "../data/Training/Run_0001/images/frame_01364.png"
        string_val: "../data/Training/Run_0001/images/frame_01295.png"
        string_val: "../data/Training/Run_0001/images/frame_02094.png"
        string_val: "../data/Training/Run_0001/images/frame_00561.png"
        string_val: "../data/Training/Run_0001/images/frame_03321.png"
        string_val: "../data/Training/Run_0001/images/frame_02562.png"
        string_val: "../data/Training/Run_0001/images/frame_00543.png"
        string_val: "../data/Training/Run_0001/images/frame_01352.png"
        string_val: "../data/Training/Run_0001/images/frame_02082.png"
        string_val: "../data/Training/Run_0001/images/frame_02893.png"
        string_val: "../data/Training/Run_0001/images/frame_02173.png"
        string_val: "../data/Training/Run_0001/images/frame_01782.png"
        string_val: "../data/Training/Run_0001/images/frame_03517.png"
        string_val: "../data/Training/Run_0001/images/frame_02819.png"
        string_val: "../data/Training/Run_0001/images/frame_02648.png"
        string_val: "../data/Training/Run_0001/images/frame_03038.png"
        string_val: "../data/Training/Run_0001/images/frame_03358.png"
        string_val: "../data/Training/Run_0001/images/frame_02076.png"
        string_val: "../data/Training/Run_0001/images/frame_00686.png"
        string_val: "../data/Training/Run_0001/images/frame_00110.png"
        string_val: "../data/Training/Run_0001/images/frame_03523.png"
        string_val: "../data/Training/Run_0001/images/frame_01609.png"
        string_val: "../data/Training/Run_0001/images/frame_01966.png"
        string_val: "../data/Training/Run_0001/images/frame_03444.png"
        string_val: "../data/Training/Run_0001/images/frame_03559.png"
        string_val: "../data/Training/Run_0001/images/frame_01427.png"
        string_val: "../data/Training/Run_0001/images/frame_01068.png"
        string_val: "../data/Training/Run_0001/images/frame_01723.png"
        string_val: "../data/Training/Run_0001/images/frame_01331.png"
        string_val: "../data/Training/Run_0001/images/frame_03661.png"
        string_val: "../data/Training/Run_0001/images/frame_04246.png"
        string_val: "../data/Training/Run_0001/images/frame_01019.png"
        string_val: "../data/Training/Run_0001/images/frame_04302.png"
        string_val: "../data/Training/Run_0001/images/frame_02527.png"
        string_val: "../data/Training/Run_0001/images/frame_04673.png"
        string_val: "../data/Training/Run_0001/images/frame_01242.png"
        string_val: "../data/Training/Run_0001/images/frame_03555.png"
        string_val: "../data/Training/Run_0001/images/frame_03991.png"
        string_val: "../data/Training/Run_0001/images/frame_02031.png"
        string_val: "../data/Training/Run_0001/images/frame_01267.png"
        string_val: "../data/Training/Run_0001/images/frame_03908.png"
        string_val: "../data/Training/Run_0001/images/frame_03525.png"
        string_val: "../data/Training/Run_0001/images/frame_00171.png"
        string_val: "../data/Training/Run_0001/images/frame_02995.png"
        string_val: "../data/Training/Run_0001/images/frame_00653.png"
        string_val: "../data/Training/Run_0001/images/frame_01099.png"
        string_val: "../data/Training/Run_0001/images/frame_00874.png"
        string_val: "../data/Training/Run_0001/images/frame_00466.png"
        string_val: "../data/Training/Run_0001/images/frame_03691.png"
        string_val: "../data/Training/Run_0001/images/frame_04085.png"
        string_val: "../data/Training/Run_0001/images/frame_00771.png"
        string_val: "../data/Training/Run_0001/images/frame_01092.png"
        string_val: "../data/Training/Run_0001/images/frame_02552.png"
        string_val: "../data/Training/Run_0001/images/frame_04423.png"
        string_val: "../data/Training/Run_0001/images/frame_01001.png"
        string_val: "../data/Training/Run_0001/images/frame_02802.png"
        string_val: "../data/Training/Run_0001/images/frame_04452.png"
        string_val: "../data/Training/Run_0001/images/frame_03898.png"
        string_val: "../data/Training/Run_0001/images/frame_04378.png"
        string_val: "../data/Training/Run_0001/images/frame_00843.png"
        string_val: "../data/Training/Run_0001/images/frame_00119.png"
        string_val: "../data/Training/Run_0001/images/frame_00641.png"
        string_val: "../data/Training/Run_0001/images/frame_00740.png"
        string_val: "../data/Training/Run_0001/images/frame_02408.png"
        string_val: "../data/Training/Run_0001/images/frame_04564.png"
        string_val: "../data/Training/Run_0001/images/frame_03796.png"
        string_val: "../data/Training/Run_0001/images/frame_03864.png"
        string_val: "../data/Training/Run_0001/images/frame_03977.png"
        string_val: "../data/Training/Run_0001/images/frame_04506.png"
        string_val: "../data/Training/Run_0001/images/frame_00706.png"
        string_val: "../data/Training/Run_0001/images/frame_03617.png"
        string_val: "../data/Training/Run_0001/images/frame_00145.png"
        string_val: "../data/Training/Run_0001/images/frame_01496.png"
        string_val: "../data/Training/Run_0001/images/frame_03297.png"
        string_val: "../data/Training/Run_0001/images/frame_03826.png"
        string_val: "../data/Training/Run_0001/images/frame_01795.png"
        string_val: "../data/Training/Run_0001/images/frame_00776.png"
        string_val: "../data/Training/Run_0001/images/frame_04634.png"
        string_val: "../data/Training/Run_0001/images/frame_02975.png"
        string_val: "../data/Training/Run_0001/images/frame_02285.png"
        string_val: "../data/Training/Run_0001/images/frame_02118.png"
        string_val: "../data/Training/Run_0001/images/frame_00817.png"
        string_val: "../data/Training/Run_0001/images/frame_00058.png"
        string_val: "../data/Training/Run_0001/images/frame_04445.png"
        string_val: "../data/Training/Run_0001/images/frame_01467.png"
        string_val: "../data/Training/Run_0001/images/frame_03557.png"
        string_val: "../data/Training/Run_0001/images/frame_00490.png"
        string_val: "../data/Training/Run_0001/images/frame_01840.png"
        string_val: "../data/Training/Run_0001/images/frame_02579.png"
        string_val: "../data/Training/Run_0001/images/frame_04347.png"
        string_val: "../data/Training/Run_0001/images/frame_03267.png"
        string_val: "../data/Training/Run_0001/images/frame_04234.png"
        string_val: "../data/Training/Run_0001/images/frame_00452.png"
        string_val: "../data/Training/Run_0001/images/frame_03558.png"
        string_val: "../data/Training/Run_0001/images/frame_02276.png"
        string_val: "../data/Training/Run_0001/images/frame_00876.png"
        string_val: "../data/Training/Run_0001/images/frame_01266.png"
        string_val: "../data/Training/Run_0001/images/frame_04112.png"
        string_val: "../data/Training/Run_0001/images/frame_00170.png"
        string_val: "../data/Training/Run_0001/images/frame_01650.png"
        string_val: "../data/Training/Run_0001/images/frame_04070.png"
        string_val: "../data/Training/Run_0001/images/frame_00516.png"
        string_val: "../data/Training/Run_0001/images/frame_02711.png"
        string_val: "../data/Training/Run_0001/images/frame_03490.png"
        string_val: "../data/Training/Run_0001/images/frame_01555.png"
        string_val: "../data/Training/Run_0001/images/frame_04721.png"
        string_val: "../data/Training/Run_0001/images/frame_00428.png"
        string_val: "../data/Training/Run_0001/images/frame_04666.png"
        string_val: "../data/Training/Run_0001/images/frame_03537.png"
        string_val: "../data/Training/Run_0001/images/frame_01549.png"
        string_val: "../data/Training/Run_0001/images/frame_02659.png"
        string_val: "../data/Training/Run_0001/images/frame_04442.png"
        string_val: "../data/Training/Run_0001/images/frame_02323.png"
        string_val: "../data/Training/Run_0001/images/frame_03646.png"
        string_val: "../data/Training/Run_0001/images/frame_04149.png"
        string_val: "../data/Training/Run_0001/images/frame_04439.png"
        string_val: "../data/Training/Run_0001/images/frame_03760.png"
        string_val: "../data/Training/Run_0001/images/frame_02639.png"
        string_val: "../data/Training/Run_0001/images/frame_04383.png"
        string_val: "../data/Training/Run_0001/images/frame_00480.png"
        string_val: "../data/Training/Run_0001/images/frame_03721.png"
        string_val: "../data/Training/Run_0001/images/frame_00207.png"
        string_val: "../data/Training/Run_0001/images/frame_04374.png"
        string_val: "../data/Training/Run_0001/images/frame_02116.png"
        string_val: "../data/Training/Run_0001/images/frame_01939.png"
        string_val: "../data/Training/Run_0001/images/frame_04224.png"
        string_val: "../data/Training/Run_0001/images/frame_03855.png"
        string_val: "../data/Training/Run_0001/images/frame_00477.png"
        string_val: "../data/Training/Run_0001/images/frame_00034.png"
        string_val: "../data/Training/Run_0001/images/frame_03689.png"
        string_val: "../data/Training/Run_0001/images/frame_04691.png"
        string_val: "../data/Training/Run_0001/images/frame_02951.png"
        string_val: "../data/Training/Run_0001/images/frame_03362.png"
        string_val: "../data/Training/Run_0001/images/frame_01547.png"
        string_val: "../data/Training/Run_0001/images/frame_04324.png"
        string_val: "../data/Training/Run_0001/images/frame_03499.png"
        string_val: "../data/Training/Run_0001/images/frame_02491.png"
        string_val: "../data/Training/Run_0001/images/frame_00210.png"
        string_val: "../data/Training/Run_0001/images/frame_00958.png"
        string_val: "../data/Training/Run_0001/images/frame_04355.png"
        string_val: "../data/Training/Run_0001/images/frame_04391.png"
        string_val: "../data/Training/Run_0001/images/frame_04536.png"
        string_val: "../data/Training/Run_0001/images/frame_01217.png"
        string_val: "../data/Training/Run_0001/images/frame_02308.png"
        string_val: "../data/Training/Run_0001/images/frame_02915.png"
        string_val: "../data/Training/Run_0001/images/frame_01020.png"
        string_val: "../data/Training/Run_0001/images/frame_04504.png"
        string_val: "../data/Training/Run_0001/images/frame_02269.png"
        string_val: "../data/Training/Run_0001/images/frame_00927.png"
        string_val: "../data/Training/Run_0001/images/frame_00493.png"
        string_val: "../data/Training/Run_0001/images/frame_00055.png"
        string_val: "../data/Training/Run_0001/images/frame_04641.png"
        string_val: "../data/Training/Run_0001/images/frame_00942.png"
        string_val: "../data/Training/Run_0001/images/frame_03841.png"
        string_val: "../data/Training/Run_0001/images/frame_01670.png"
        string_val: "../data/Training/Run_0001/images/frame_01901.png"
        string_val: "../data/Training/Run_0001/images/frame_03118.png"
        string_val: "../data/Training/Run_0001/images/frame_01042.png"
        string_val: "../data/Training/Run_0001/images/frame_02034.png"
        string_val: "../data/Training/Run_0001/images/frame_00196.png"
        string_val: "../data/Training/Run_0001/images/frame_02518.png"
        string_val: "../data/Training/Run_0001/images/frame_01292.png"
        string_val: "../data/Training/Run_0001/images/frame_02967.png"
        string_val: "../data/Training/Run_0001/images/frame_00984.png"
        string_val: "../data/Training/Run_0001/images/frame_00645.png"
        string_val: "../data/Training/Run_0001/images/frame_01535.png"
        string_val: "../data/Training/Run_0001/images/frame_01505.png"
        string_val: "../data/Training/Run_0001/images/frame_03628.png"
        string_val: "../data/Training/Run_0001/images/frame_00548.png"
        string_val: "../data/Training/Run_0001/images/frame_00161.png"
        string_val: "../data/Training/Run_0001/images/frame_00319.png"
        string_val: "../data/Training/Run_0001/images/frame_00049.png"
        string_val: "../data/Training/Run_0001/images/frame_02155.png"
        string_val: "../data/Training/Run_0001/images/frame_02532.png"
        string_val: "../data/Training/Run_0001/images/frame_03346.png"
        string_val: "../data/Training/Run_0001/images/frame_01036.png"
        string_val: "../data/Training/Run_0001/images/frame_02377.png"
        string_val: "../data/Training/Run_0001/images/frame_03431.png"
        string_val: "../data/Training/Run_0001/images/frame_02299.png"
        string_val: "../data/Training/Run_0001/images/frame_03919.png"
        string_val: "../data/Training/Run_0001/images/frame_04647.png"
        string_val: "../data/Training/Run_0001/images/frame_04360.png"
        string_val: "../data/Training/Run_0001/images/frame_03657.png"
        string_val: "../data/Training/Run_0001/images/frame_03460.png"
        string_val: "../data/Training/Run_0001/images/frame_01572.png"
        string_val: "../data/Training/Run_0001/images/frame_01996.png"
        string_val: "../data/Training/Run_0001/images/frame_04231.png"
        string_val: "../data/Training/Run_0001/images/frame_03780.png"
        string_val: "../data/Training/Run_0001/images/frame_02543.png"
        string_val: "../data/Training/Run_0001/images/frame_00215.png"
        string_val: "../data/Training/Run_0001/images/frame_00408.png"
        string_val: "../data/Training/Run_0001/images/frame_03783.png"
        string_val: "../data/Training/Run_0001/images/frame_04538.png"
        string_val: "../data/Training/Run_0001/images/frame_00680.png"
        string_val: "../data/Training/Run_0001/images/frame_03578.png"
        string_val: "../data/Training/Run_0001/images/frame_00117.png"
        string_val: "../data/Training/Run_0001/images/frame_01216.png"
        string_val: "../data/Training/Run_0001/images/frame_03137.png"
        string_val: "../data/Training/Run_0001/images/frame_04260.png"
        string_val: "../data/Training/Run_0001/images/frame_01254.png"
        string_val: "../data/Training/Run_0001/images/frame_04643.png"
        string_val: "../data/Training/Run_0001/images/frame_04091.png"
        string_val: "../data/Training/Run_0001/images/frame_00980.png"
        string_val: "../data/Training/Run_0001/images/frame_02270.png"
        string_val: "../data/Training/Run_0001/images/frame_02956.png"
        string_val: "../data/Training/Run_0001/images/frame_01997.png"
…
  name: "report_uninitialized_variables/IsVariableInitialized_86"
  op: "IsVariableInitialized"
  input: "Variance_Prediction/dense_1/bias/Adam_1"
  attr {
    key: "_class"
    value {
      list {
        s: "loc:@Variance_Prediction/dense_1/bias"
      }
    }
  }
  attr {
    key: "_output_shapes"
    value {
      list {
        shape {
        }
      }
    }
  }
  attr {
    key: "dtype"
    value {
      type: DT_FLOAT
    }
  }
}
node {
  name: "report_uninitialized_variables/IsVariableInitialized_87"
  op: "IsVariableInitialized"
  input: "Variance_Prediction/dense_2/kernel/Adam"
  attr {
    key: "_class"
    value {
      list {
        s: "loc:@Variance_Prediction/dense_2/kernel"
      }
    }
  }
  attr {
    key: "_output_shapes"
    value {
      list {
        shape {
        }
      }
    }
  }
  attr {
    key: "dtype"
    value {
      type: DT_FLOAT
    }
  }
}
node {
  name: "report_uninitialized_variables/IsVariableInitialized_88"
  op: "IsVariableInitialized"
  input: "Variance_Prediction/dense_2/kernel/Adam_1"
  attr {
    key: "_class"
    value {
      list {
        s: "loc:@Variance_Prediction/dense_2/kernel"
      }
    }
  }
  attr {
    key: "_output_shapes"
    value {
      list {
        shape {
        }
      }
    }
  }
  attr {
    key: "dtype"
    value {
      type: DT_FLOAT
    }
  }
}
node {
  name: "report_uninitialized_variables/IsVariableInitialized_89"
  op: "IsVariableInitialized"
  input: "Variance_Prediction/dense_2/bias/Adam"
  attr {
    key: "_class"
    value {
      list {
        s: "loc:@Variance_Prediction/dense_2/bias"
      }
    }
  }
  attr {
    key: "_output_shapes"
    value {
      list {
        shape {
        }
      }
    }
  }
  attr {
    key: "dtype"
    value {
      type: DT_FLOAT
    }
  }
}
node {
  name: "report_uninitialized_variables/IsVariableInitialized_90"
  op: "IsVariableInitialized"
  input: "Variance_Prediction/dense_2/bias/Adam_1"
  attr {
    key: "_class"
    value {
      list {
        s: "loc:@Variance_Prediction/dense_2/bias"
      }
    }
  }
  attr {
    key: "_output_shapes"
    value {
      list {
        shape {
        }
      }
    }
  }
  attr {
    key: "dtype"
    value {
      type: DT_FLOAT
    }
  }
}
node {
  name: "report_uninitialized_variables/IsVariableInitialized_91"
  op: "IsVariableInitialized"
  input: "Variance_Prediction/dense_3/kernel/Adam"
  attr {
    key: "_class"
    value {
      list {
        s: "loc:@Variance_Prediction/dense_3/kernel"
      }
    }
  }
  attr {
    key: "_output_shapes"
    value {
      list {
        shape {
        }
      }
    }
  }
  attr {
    key: "dtype"
    value {
      type: DT_FLOAT
    }
  }
}
node {
  name: "report_uninitialized_variables/IsVariableInitialized_92"
  op: "IsVariableInitialized"
  input: "Variance_Prediction/dense_3/kernel/Adam_1"
  attr {
    key: "_class"
    value {
      list {
        s: "loc:@Variance_Prediction/dense_3/kernel"
      }
    }
  }
  attr {
    key: "_output_shapes"
    value {
      list {
        shape {
        }
      }
    }
  }
  attr {
    key: "dtype"
    value {
      type: DT_FLOAT
    }
  }
}
node {
  name: "report_uninitialized_variables/IsVariableInitialized_93"
  op: "IsVariableInitialized"
  input: "Variance_Prediction/dense_3/bias/Adam"
  attr {
    key: "_class"
    value {
      list {
        s: "loc:@Variance_Prediction/dense_3/bias"
      }
    }
  }
  attr {
    key: "_output_shapes"
    value {
      list {
        shape {
        }
      }
    }
  }
  attr {
    key: "dtype"
    value {
      type: DT_FLOAT
    }
  }
}
node {
  name: "report_uninitialized_variables/IsVariableInitialized_94"
  op: "IsVariableInitialized"
  input: "Variance_Prediction/dense_3/bias/Adam_1"
  attr {
    key: "_class"
    value {
      list {
        s: "loc:@Variance_Prediction/dense_3/bias"
      }
    }
  }
  attr {
    key: "_output_shapes"
    value {
      list {
        shape {
        }
      }
    }
  }
  attr {
    key: "dtype"
    value {
      type: DT_FLOAT
    }
  }
}
node {
  name: "report_uninitialized_variables/IsVariableInitialized_95"
  op: "IsVariableInitialized"
  input: "Mean_Prediction/dense/kernel/Adam"
  attr {
    key: "_class"
    value {
      list {
        s: "loc:@Mean_Prediction/dense/kernel"
      }
    }
  }
  attr {
    key: "_output_shapes"
    value {
      list {
        shape {
        }
      }
    }
  }
  attr {
    key: "dtype"
    value {
      type: DT_FLOAT
    }
  }
}
node {
  name: "report_uninitialized_variables/IsVariableInitialized_96"
  op: "IsVariableInitialized"
  input: "Mean_Prediction/dense/kernel/Adam_1"
  attr {
    key: "_class"
    value {
      list {
        s: "loc:@Mean_Prediction/dense/kernel"
      }
    }
  }
  attr {
    key: "_output_shapes"
    value {
      list {
        shape {
        }
      }
    }
  }
  attr {
    key: "dtype"
    value {
      type: DT_FLOAT
    }
  }
}
node {
  name: "report_uninitialized_variables/IsVariableInitialized_97"
  op: "IsVariableInitialized"
  input: "Mean_Prediction/dense/bias/Adam"
  attr {
    key: "_class"
    value {
      list {
        s: "loc:@Mean_Prediction/dense/bias"
      }
    }
  }
  attr {
    key: "_output_shapes"
    value {
      list {
        shape {
        }
      }
    }
  }
  attr {
    key: "dtype"
    value {
      type: DT_FLOAT
    }
  }
}
node {
  name: "report_uninitialized_variables/IsVariableInitialized_98"
  op: "IsVariableInitialized"
  input: "Mean_Prediction/dense/bias/Adam_1"
  attr {
    key: "_class"
    value {
      list {
        s: "loc:@Mean_Prediction/dense/bias"
      }
    }
  }
  attr {
    key: "_output_shapes"
    value {
      list {
        shape {
        }
      }
    }
  }
  attr {
    key: "dtype"
    value {
      type: DT_FLOAT
    }
  }
}
node {
  name: "report_uninitialized_variables/IsVariableInitialized_99"
  op: "IsVariableInitialized"
  input: "Mean_Prediction/dense_1/kernel/Adam"
  attr {
    key: "_class"
    value {
      list {
        s: "loc:@Mean_Prediction/dense_1/kernel"
      }
    }
  }
  attr {
    key: "_output_shapes"
    value {
      list {
        shape {
        }
      }
    }
  }
  attr {
    key: "dtype"
    value {
      type: DT_FLOAT
    }
  }
}
node {
  name: "report_uninitialized_variables/IsVariableInitialized_100"
  op: "IsVariableInitialized"
  input: "Mean_Prediction/dense_1/kernel/Adam_1"
  attr {
    key: "_class"
    value {
      list {
        s: "loc:@Mean_Prediction/dense_1/kernel"
      }
    }
  }
  attr {
    key: "_output_shapes"
    value {
      list {
        shape {
        }
      }
    }
  }
  attr {
    key: "dtype"
    value {
      type: DT_FLOAT
    }
  }
}
node {
  name: "report_uninitialized_variables/IsVariableInitialized_101"
  op: "IsVariableInitialized"
  input: "Mean_Prediction/dense_1/bias/Adam"
  attr {
    key: "_class"
    value {
      list {
        s: "loc:@Mean_Prediction/dense_1/bias"
      }
    }
  }
  attr {
    key: "_output_shapes"
    value {
      list {
        shape {
        }
      }
    }
  }
  attr {
    key: "dtype"
    value {
      type: DT_FLOAT
    }
  }
}
node {
  name: "report_uninitialized_variables/IsVariableInitialized_102"
  op: "IsVariableInitialized"
  input: "Mean_Prediction/dense_1/bias/Adam_1"
  attr {
    key: "_class"
    value {
      list {
        s: "loc:@Mean_Prediction/dense_1/bias"
      }
    }
  }
  attr {
    key: "_output_shapes"
    value {
      list {
        shape {
        }
      }
    }
  }
  attr {
    key: "dtype"
    value {
      type: DT_FLOAT
    }
  }
}
node {
  name: "report_uninitialized_variables/IsVariableInitialized_103"
  op: "IsVariableInitialized"
  input: "Mean_Prediction/dense_2/kernel/Adam"
  attr {
    key: "_class"
    value {
      list {
        s: "loc:@Mean_Prediction/dense_2/kernel"
      }
    }
  }
  attr {
    key: "_output_shapes"
    value {
      list {
        shape {
        }
      }
    }
  }
  attr {
    key: "dtype"
    value {
      type: DT_FLOAT
    }
  }
}
node {
  name: "report_uninitialized_variables/IsVariableInitialized_104"
  op: "IsVariableInitialized"
  input: "Mean_Prediction/dense_2/kernel/Adam_1"
  attr {
    key: "_class"
    value {
      list {
        s: "loc:@Mean_Prediction/dense_2/kernel"
      }
    }
  }
  attr {
    key: "_output_shapes"
    value {
      list {
        shape {
        }
      }
    }
  }
  attr {
    key: "dtype"
    value {
      type: DT_FLOAT
    }
  }
}
node {
  name: "report_uninitialized_variables/IsVariableInitialized_105"
  op: "IsVariableInitialized"
  input: "Mean_Prediction/dense_2/bias/Adam"
  attr {
    key: "_class"
    value {
      list {
        s: "loc:@Mean_Prediction/dense_2/bias"
      }
    }
  }
  attr {
    key: "_output_shapes"
    value {
      list {
        shape {
        }
      }
    }
  }
  attr {
    key: "dtype"
    value {
      type: DT_FLOAT
    }
  }
}
node {
  name: "report_uninitialized_variables/IsVariableInitialized_106"
  op: "IsVariableInitialized"
  input: "Mean_Prediction/dense_2/bias/Adam_1"
  attr {
    key: "_class"
    value {
      list {
        s: "loc:@Mean_Prediction/dense_2/bias"
      }
    }
  }
  attr {
    key: "_output_shapes"
    value {
      list {
        shape {
        }
      }
    }
  }
  attr {
    key: "dtype"
    value {
      type: DT_FLOAT
    }
  }
}
node {
  name: "report_uninitialized_variables/IsVariableInitialized_107"
  op: "IsVariableInitialized"
  input: "Mean_Prediction/dense_3/kernel/Adam"
  attr {
    key: "_class"
    value {
      list {
        s: "loc:@Mean_Prediction/dense_3/kernel"
      }
    }
  }
  attr {
    key: "_output_shapes"
    value {
      list {
        shape {
        }
      }
    }
  }
  attr {
    key: "dtype"
    value {
      type: DT_FLOAT
    }
  }
}
node {
  name: "report_uninitialized_variables/IsVariableInitialized_108"
  op: "IsVariableInitialized"
  input: "Mean_Prediction/dense_3/kernel/Adam_1"
  attr {
    key: "_class"
    value {
      list {
        s: "loc:@Mean_Prediction/dense_3/kernel"
      }
    }
  }
  attr {
    key: "_output_shapes"
    value {
      list {
        shape {
        }
      }
    }
  }
  attr {
    key: "dtype"
    value {
      type: DT_FLOAT
    }
  }
}
node {
  name: "report_uninitialized_variables/IsVariableInitialized_109"
  op: "IsVariableInitialized"
  input: "Mean_Prediction/dense_3/bias/Adam"
  attr {
    key: "_class"
    value {
      list {
        s: "loc:@Mean_Prediction/dense_3/bias"
      }
    }
  }
  attr {
    key: "_output_shapes"
    value {
      list {
        shape {
        }
      }
    }
  }
  attr {
    key: "dtype"
    value {
      type: DT_FLOAT
    }
  }
}
node {
  name: "report_uninitialized_variables/IsVariableInitialized_110"
  op: "IsVariableInitialized"
  input: "Mean_Prediction/dense_3/bias/Adam_1"
  attr {
    key: "_class"
    value {
      list {
        s: "loc:@Mean_Prediction/dense_3/bias"
      }
    }
  }
  attr {
    key: "_output_shapes"
    value {
      list {
        shape {
        }
      }
    }
  }
  attr {
    key: "dtype"
    value {
      type: DT_FLOAT
    }
  }
}
node {
  name: "report_uninitialized_variables/stack"
  op: "Pack"
  input: "report_uninitialized_variables/IsVariableInitialized"
  input: "report_uninitialized_variables/IsVariableInitialized_1"
  input: "report_uninitialized_variables/IsVariableInitialized_2"
  input: "report_uninitialized_variables/IsVariableInitialized_3"
  input: "report_uninitialized_variables/IsVariableInitialized_4"
  input: "report_uninitialized_variables/IsVariableInitialized_5"
  input: "report_uninitialized_variables/IsVariableInitialized_6"
  input: "report_uninitialized_variables/IsVariableInitialized_7"
  input: "report_uninitialized_variables/IsVariableInitialized_8"
  input: "report_uninitialized_variables/IsVariableInitialized_9"
  input: "report_uninitialized_variables/IsVariableInitialized_10"
  input: "report_uninitialized_variables/IsVariableInitialized_11"
  input: "report_uninitialized_variables/IsVariableInitialized_12"
  input: "report_uninitialized_variables/IsVariableInitialized_13"
  input: "report_uninitialized_variables/IsVariableInitialized_14"
  input: "report_uninitialized_variables/IsVariableInitialized_15"
  input: "report_uninitialized_variables/IsVariableInitialized_16"
  input: "report_uninitialized_variables/IsVariableInitialized_17"
  input: "report_uninitialized_variables/IsVariableInitialized_18"
  input: "report_uninitialized_variables/IsVariableInitialized_19"
  input: "report_uninitialized_variables/IsVariableInitialized_20"
  input: "report_uninitialized_variables/IsVariableInitialized_21"
  input: "report_uninitialized_variables/IsVariableInitialized_22"
  input: "report_uninitialized_variables/IsVariableInitialized_23"
  input: "report_uninitialized_variables/IsVariableInitialized_24"
  input: "report_uninitialized_variables/IsVariableInitialized_25"
  input: "report_uninitialized_variables/IsVariableInitialized_26"
  input: "report_uninitialized_variables/IsVariableInitialized_27"
  input: "report_uninitialized_variables/IsVariableInitialized_28"
  input: "report_uninitialized_variables/IsVariableInitialized_29"
  input: "report_uninitialized_variables/IsVariableInitialized_30"
  input: "report_uninitialized_variables/IsVariableInitialized_31"
  input: "report_uninitialized_variables/IsVariableInitialized_32"
  input: "report_uninitialized_variables/IsVariableInitialized_33"
  input: "report_uninitialized_variables/IsVariableInitialized_34"
  input: "report_uninitialized_variables/IsVariableInitialized_35"
  input: "report_uninitialized_variables/IsVariableInitialized_36"
  input: "report_uninitialized_variables/IsVariableInitialized_37"
  input: "report_uninitialized_variables/IsVariableInitialized_38"
  input: "report_uninitialized_variables/IsVariableInitialized_39"
  input: "report_uninitialized_variables/IsVariableInitialized_40"
  input: "report_uninitialized_variables/IsVariableInitialized_41"
  input: "report_uninitialized_variables/IsVariableInitialized_42"
  input: "report_uninitialized_variables/IsVariableInitialized_43"
  input: "report_uninitialized_variables/IsVariableInitialized_44"
  input: "report_uninitialized_variables/IsVariableInitialized_45"
  input: "report_uninitialized_variables/IsVariableInitialized_46"
  input: "report_uninitialized_variables/IsVariableInitialized_47"
  input: "report_uninitialized_variables/IsVariableInitialized_48"
  input: "report_uninitialized_variables/IsVariableInitialized_49"
  input: "report_uninitialized_variables/IsVariableInitialized_50"
  input: "report_uninitialized_variables/IsVariableInitialized_51"
  input: "report_uninitialized_variables/IsVariableInitialized_52"
  input: "report_uninitialized_variables/IsVariableInitialized_53"
  input: "report_uninitialized_variables/IsVariableInitialized_54"
  input: "report_uninitialized_variables/IsVariableInitialized_55"
  input: "report_uninitialized_variables/IsVariableInitialized_56"
  input: "report_uninitialized_variables/IsVariableInitialized_57"
  input: "report_uninitialized_variables/IsVariableInitialized_58"
  input: "report_uninitialized_variables/IsVariableInitialized_59"
  input: "report_uninitialized_variables/IsVariableInitialized_60"
  input: "report_uninitialized_variables/IsVariableInitialized_61"
  input: "report_uninitialized_variables/IsVariableInitialized_62"
  input: "report_uninitialized_variables/IsVariableInitialized_63"
  input: "report_uninitialized_variables/IsVariableInitialized_64"
  input: "report_uninitialized_variables/IsVariableInitialized_65"
  input: "report_uninitialized_variables/IsVariableInitialized_66"
  input: "report_uninitialized_variables/IsVariableInitialized_67"
  input: "report_uninitialized_variables/IsVariableInitialized_68"
  input: "report_uninitialized_variables/IsVariableInitialized_69"
  input: "report_uninitialized_variables/IsVariableInitialized_70"
  input: "report_uninitialized_variables/IsVariableInitialized_71"
  input: "report_uninitialized_variables/IsVariableInitialized_72"
  input: "report_uninitialized_variables/IsVariableInitialized_73"
  input: "report_uninitialized_variables/IsVariableInitialized_74"
  input: "report_uninitialized_variables/IsVariableInitialized_75"
  input: "report_uninitialized_variables/IsVariableInitialized_76"
  input: "report_uninitialized_variables/IsVariableInitialized_77"
  input: "report_uninitialized_variables/IsVariableInitialized_78"
  input: "report_uninitialized_variables/IsVariableInitialized_79"
  input: "report_uninitialized_variables/IsVariableInitialized_80"
  input: "report_uninitialized_variables/IsVariableInitialized_81"
  input: "report_uninitialized_variables/IsVariableInitialized_82"
  input: "report_uninitialized_variables/IsVariableInitialized_83"
  input: "report_uninitialized_variables/IsVariableInitialized_84"
  input: "report_uninitialized_variables/IsVariableInitialized_85"
  input: "report_uninitialized_variables/IsVariableInitialized_86"
  input: "report_uninitialized_variables/IsVariableInitialized_87"
  input: "report_uninitialized_variables/IsVariableInitialized_88"
  input: "report_uninitialized_variables/IsVariableInitialized_89"
  input: "report_uninitialized_variables/IsVariableInitialized_90"
  input: "report_uninitialized_variables/IsVariableInitialized_91"
  input: "report_uninitialized_variables/IsVariableInitialized_92"
  input: "report_uninitialized_variables/IsVariableInitialized_93"
  input: "report_uninitialized_variables/IsVariableInitialized_94"
  input: "report_uninitialized_variables/IsVariableInitialized_95"
  input: "report_uninitialized_variables/IsVariableInitialized_96"
  input: "report_uninitialized_variables/IsVariableInitialized_97"
  input: "report_uninitialized_variables/IsVariableInitialized_98"
  input: "report_uninitialized_variables/IsVariableInitialized_99"
  input: "report_uninitialized_variables/IsVariableInitialized_100"
  input: "report_uninitialized_variables/IsVariableInitialized_101"
  input: "report_uninitialized_variables/IsVariableInitialized_102"
  input: "report_uninitialized_variables/IsVariableInitialized_103"
  input: "report_uninitialized_variables/IsVariableInitialized_104"
  input: "report_uninitialized_variables/IsVariableInitialized_105"
  input: "report_uninitialized_variables/IsVariableInitialized_106"
  input: "report_uninitialized_variables/IsVariableInitialized_107"
  input: "report_uninitialized_variables/IsVariableInitialized_108"
  input: "report_uninitialized_variables/IsVariableInitialized_109"
  input: "report_uninitialized_variables/IsVariableInitialized_110"
  device: "/device:CPU:0"
  attr {
    key: "N"
    value {
      i: 111
    }
  }
  attr {
    key: "T"
    value {
      type: DT_BOOL
    }
  }
  attr {
    key: "_output_shapes"
    value {
      list {
        shape {
          dim {
            size: 111
          }
        }
      }
    }
  }
  attr {
    key: "axis"
    value {
      i: 0
    }
  }
}
node {
  name: "report_uninitialized_variables/LogicalNot"
  op: "LogicalNot"
  input: "report_uninitialized_variables/stack"
  device: "/device:CPU:0"
  attr {
    key: "_output_shapes"
    value {
      list {
        shape {
          dim {
            size: 111
          }
        }
      }
    }
  }
}
node {
  name: "report_uninitialized_variables/Const"
  op: "Const"
  device: "/device:CPU:0"
  attr {
    key: "_output_shapes"
    value {
      list {
        shape {
          dim {
            size: 111
          }
        }
      }
    }
  }
  attr {
    key: "dtype"
    value {
      type: DT_STRING
    }
  }
  attr {
    key: "value"
    value {
      tensor {
        dtype: DT_STRING
        tensor_shape {
          dim {
            size: 111
          }
        }
        string_val: "global_step"
        string_val: "CNN/conv2d/kernel"
        string_val: "CNN/conv2d/bias"
        string_val: "CNN/conv2d_1/kernel"
        string_val: "CNN/conv2d_1/bias"
        string_val: "CNN/conv2d_2/kernel"
        string_val: "CNN/conv2d_2/bias"
        string_val: "CNN/conv2d_3/kernel"
        string_val: "CNN/conv2d_3/bias"
        string_val: "CNN/conv2d_4/kernel"
        string_val: "CNN/conv2d_4/bias"
        string_val: "CNN/conv2d_5/kernel"
        string_val: "CNN/conv2d_5/bias"
        string_val: "CNN/conv2d_6/kernel"
        string_val: "CNN/conv2d_6/bias"
        string_val: "CNN/conv2d_7/kernel"
        string_val: "CNN/conv2d_7/bias"
        string_val: "CNN/conv2d_8/kernel"
        string_val: "CNN/conv2d_8/bias"
        string_val: "CNN/conv2d_9/kernel"
        string_val: "CNN/conv2d_9/bias"
        string_val: "Mean_Prediction/dense/kernel"
        string_val: "Mean_Prediction/dense/bias"
        string_val: "Mean_Prediction/dense_1/kernel"
        string_val: "Mean_Prediction/dense_1/bias"
        string_val: "Mean_Prediction/dense_2/kernel"
        string_val: "Mean_Prediction/dense_2/bias"
        string_val: "Mean_Prediction/dense_3/kernel"
        string_val: "Mean_Prediction/dense_3/bias"
        string_val: "Variance_Prediction/dense/kernel"
        string_val: "Variance_Prediction/dense/bias"
        string_val: "Variance_Prediction/dense_1/kernel"
        string_val: "Variance_Prediction/dense_1/bias"
        string_val: "Variance_Prediction/dense_2/kernel"
        string_val: "Variance_Prediction/dense_2/bias"
        string_val: "Variance_Prediction/dense_3/kernel"
        string_val: "Variance_Prediction/dense_3/bias"
        string_val: "train_op/beta1_power"
        string_val: "train_op/beta2_power"
        string_val: "CNN/conv2d/kernel/Adam"
        string_val: "CNN/conv2d/kernel/Adam_1"
        string_val: "CNN/conv2d/bias/Adam"
        string_val: "CNN/conv2d/bias/Adam_1"
        string_val: "CNN/conv2d_1/kernel/Adam"
        string_val: "CNN/conv2d_1/kernel/Adam_1"
        string_val: "CNN/conv2d_1/bias/Adam"
        string_val: "CNN/conv2d_1/bias/Adam_1"
        string_val: "CNN/conv2d_2/kernel/Adam"
        string_val: "CNN/conv2d_2/kernel/Adam_1"
        string_val: "CNN/conv2d_2/bias/Adam"
        string_val: "CNN/conv2d_2/bias/Adam_1"
        string_val: "CNN/conv2d_3/kernel/Adam"
        string_val: "CNN/conv2d_3/kernel/Adam_1"
        string_val: "CNN/conv2d_3/bias/Adam"
        string_val: "CNN/conv2d_3/bias/Adam_1"
        string_val: "CNN/conv2d_4/kernel/Adam"
        string_val: "CNN/conv2d_4/kernel/Adam_1"
        string_val: "CNN/conv2d_4/bias/Adam"
        string_val: "CNN/conv2d_4/bias/Adam_1"
        string_val: "CNN/conv2d_5/kernel/Adam"
        string_val: "CNN/conv2d_5/kernel/Adam_1"
        string_val: "CNN/conv2d_5/bias/Adam"
        string_val: "CNN/conv2d_5/bias/Adam_1"
        string_val: "CNN/conv2d_6/kernel/Adam"
        string_val: "CNN/conv2d_6/kernel/Adam_1"
        string_val: "CNN/conv2d_6/bias/Adam"
        string_val: "CNN/conv2d_6/bias/Adam_1"
        string_val: "CNN/conv2d_7/kernel/Adam"
        string_val: "CNN/conv2d_7/kernel/Adam_1"
        string_val: "CNN/conv2d_7/bias/Adam"
        string_val: "CNN/conv2d_7/bias/Adam_1"
        string_val: "CNN/conv2d_8/kernel/Adam"
        string_val: "CNN/conv2d_8/kernel/Adam_1"
        string_val: "CNN/conv2d_8/bias/Adam"
        string_val: "CNN/conv2d_8/bias/Adam_1"
        string_val: "CNN/conv2d_9/kernel/Adam"
        string_val: "CNN/conv2d_9/kernel/Adam_1"
        string_val: "CNN/conv2d_9/bias/Adam"
        string_val: "CNN/conv2d_9/bias/Adam_1"
        string_val: "Variance_Prediction/dense/kernel/Adam"
        string_val: "Variance_Prediction/dense/kernel/Adam_1"
        string_val: "Variance_Prediction/dense/bias/Adam"
        string_val: "Variance_Prediction/dense/bias/Adam_1"
        string_val: "Variance_Prediction/dense_1/kernel/Adam"
        string_val: "Variance_Prediction/dense_1/kernel/Adam_1"
        string_val: "Variance_Prediction/dense_1/bias/Adam"
        string_val: "Variance_Prediction/dense_1/bias/Adam_1"
        string_val: "Variance_Prediction/dense_2/kernel/Adam"
        string_val: "Variance_Prediction/dense_2/kernel/Adam_1"
        string_val: "Variance_Prediction/dense_2/bias/Adam"
        string_val: "Variance_Prediction/dense_2/bias/Adam_1"
        string_val: "Variance_Prediction/dense_3/kernel/Adam"
        string_val: "Variance_Prediction/dense_3/kernel/Adam_1"
        string_val: "Variance_Prediction/dense_3/bias/Adam"
        string_val: "Variance_Prediction/dense_3/bias/Adam_1"
        string_val: "Mean_Prediction/dense/kernel/Adam"
        string_val: "Mean_Prediction/dense/kernel/Adam_1"
        string_val: "Mean_Prediction/dense/bias/Adam"
        string_val: "Mean_Prediction/dense/bias/Adam_1"
        string_val: "Mean_Prediction/dense_1/kernel/Adam"
        string_val: "Mean_Prediction/dense_1/kernel/Adam_1"
        string_val: "Mean_Prediction/dense_1/bias/Adam"
        string_val: "Mean_Prediction/dense_1/bias/Adam_1"
        string_val: "Mean_Prediction/dense_2/kernel/Adam"
        string_val: "Mean_Prediction/dense_2/kernel/Adam_1"
        string_val: "Mean_Prediction/dense_2/bias/Adam"
        string_val: "Mean_Prediction/dense_2/bias/Adam_1"
        string_val: "Mean_Prediction/dense_3/kernel/Adam"
        string_val: "Mean_Prediction/dense_3/kernel/Adam_1"
        string_val: "Mean_Prediction/dense_3/bias/Adam"
        string_val: "Mean_Prediction/dense_3/bias/Adam_1"
      }
    }
  }
}
node {
  name: "report_uninitialized_variables/boolean_mask/Shape"
  op: "Const"
  device: "/device:CPU:0"
  attr {
    key: "_output_shapes"
    value {
      list {
        shape {
          dim {
            size: 1
          }
        }
      }
    }
  }
  attr {
    key: "dtype"
    value {
      type: DT_INT32
    }
  }
  attr {
    key: "value"
    value {
      tensor {
        dtype: DT_INT32
        tensor_shape {
          dim {
            size: 1
          }
        }
        int_val: 111
      }
    }
  }
}
node {
  name: "report_uninitialized_variables/boolean_mask/strided_slice/stack"
  op: "Const"
  device: "/device:CPU:0"
  attr {
    key: "_output_shapes"
    value {
      list {
        shape {
          dim {
            size: 1
          }
        }
      }
    }
  }
  attr {
    key: "dtype"
    value {
      type: DT_INT32
    }
  }
  attr {
    key: "value"
    value {
      tensor {
        dtype: DT_INT32
        tensor_shape {
          dim {
            size: 1
          }
        }
        int_val: 0
      }
    }
  }
}
node {
  name: "report_uninitialized_variables/boolean_mask/strided_slice/stack_1"
  op: "Const"
  device: "/device:CPU:0"
  attr {
    key: "_output_shapes"
    value {
      list {
        shape {
          dim {
            size: 1
          }
        }
      }
    }
  }
  attr {
    key: "dtype"
    value {
      type: DT_INT32
    }
  }
  attr {
    key: "value"
    value {
      tensor {
        dtype: DT_INT32
        tensor_shape {
          dim {
            size: 1
          }
        }
        int_val: 1
      }
    }
  }
}
node {
  name: "report_uninitialized_variables/boolean_mask/strided_slice/stack_2"
  op: "Const"
  device: "/device:CPU:0"
  attr {
    key: "_output_shapes"
    value {
      list {
        shape {
          dim {
            size: 1
          }
        }
      }
    }
  }
  attr {
    key: "dtype"
    value {
      type: DT_INT32
    }
  }
  attr {
    key: "value"
    value {
      tensor {
        dtype: DT_INT32
        tensor_shape {
          dim {
            size: 1
          }
        }
        int_val: 1
      }
    }
  }
}
node {
  name: "report_uninitialized_variables/boolean_mask/strided_slice"
  op: "StridedSlice"
  input: "report_uninitialized_variables/boolean_mask/Shape"
  input: "report_uninitialized_variables/boolean_mask/strided_slice/stack"
  input: "report_uninitialized_variables/boolean_mask/strided_slice/stack_1"
  input: "report_uninitialized_variables/boolean_mask/strided_slice/stack_2"
  device: "/device:CPU:0"
  attr {
    key: "Index"
    value {
      type: DT_INT32
    }
  }
  attr {
    key: "T"
    value {
      type: DT_INT32
    }
  }
  attr {
    key: "_output_shapes"
    value {
      list {
        shape {
          dim {
            size: 1
          }
        }
      }
    }
  }
  attr {
    key: "begin_mask"
    value {
      i: 0
    }
  }
  attr {
    key: "ellipsis_mask"
    value {
      i: 0
    }
  }
  attr {
    key: "end_mask"
    value {
      i: 0
    }
  }
  attr {
    key: "new_axis_mask"
    value {
      i: 0
    }
  }
  attr {
    key: "shrink_axis_mask"
    value {
      i: 0
    }
  }
}
node {
  name: "report_uninitialized_variables/boolean_mask/Prod/reduction_indices"
  op: "Const"
  device: "/device:CPU:0"
  attr {
    key: "_output_shapes"
    value {
      list {
        shape {
          dim {
            size: 1
          }
        }
      }
    }
  }
  attr {
    key: "dtype"
    value {
      type: DT_INT32
    }
  }
  attr {
    key: "value"
    value {
      tensor {
        dtype: DT_INT32
        tensor_shape {
          dim {
            size: 1
          }
        }
        int_val: 0
      }
    }
  }
}
node {
  name: "report_uninitialized_variables/boolean_mask/Prod"
  op: "Prod"
  input: "report_uninitialized_variables/boolean_mask/strided_slice"
  input: "report_uninitialized_variables/boolean_mask/Prod/reduction_indices"
  device: "/device:CPU:0"
  attr {
    key: "T"
    value {
      type: DT_INT32
    }
  }
  attr {
    key: "Tidx"
    value {
      type: DT_INT32
    }
  }
  attr {
    key: "_output_shapes"
    value {
      list {
        shape {
        }
      }
    }
  }
  attr {
    key: "keep_dims"
    value {
      b: false
    }
  }
}
node {
  name: "report_uninitialized_variables/boolean_mask/Shape_1"
  op: "Const"
  device: "/device:CPU:0"
  attr {
    key: "_output_shapes"
    value {
      list {
        shape {
          dim {
            size: 1
          }
        }
      }
    }
  }
  attr {
    key: "dtype"
    value {
      type: DT_INT32
    }
  }
  attr {
    key: "value"
    value {
      tensor {
        dtype: DT_INT32
        tensor_shape {
          dim {
            size: 1
          }
        }
        int_val: 111
      }
    }
  }
}
node {
  name: "report_uninitialized_variables/boolean_mask/strided_slice_1/stack"
  op: "Const"
  device: "/device:CPU:0"
  attr {
    key: "_output_shapes"
    value {
      list {
        shape {
          dim {
            size: 1
          }
        }
      }
    }
  }
  attr {
    key: "dtype"
    value {
      type: DT_INT32
    }
  }
  attr {
    key: "value"
    value {
      tensor {
        dtype: DT_INT32
        tensor_shape {
          dim {
            size: 1
          }
        }
        int_val: 0
      }
    }
  }
}
node {
  name: "report_uninitialized_variables/boolean_mask/strided_slice_1/stack_1"
  op: "Const"
  device: "/device:CPU:0"
  attr {
    key: "_output_shapes"
    value {
      list {
        shape {
          dim {
            size: 1
          }
        }
      }
    }
  }
  attr {
    key: "dtype"
    value {
      type: DT_INT32
    }
  }
  attr {
    key: "value"
    value {
      tensor {
        dtype: DT_INT32
        tensor_shape {
          dim {
            size: 1
          }
        }
        int_val: 0
      }
    }
  }
}
node {
  name: "report_uninitialized_variables/boolean_mask/strided_slice_1/stack_2"
  op: "Const"
  device: "/device:CPU:0"
  attr {
    key: "_output_shapes"
    value {
      list {
        shape {
          dim {
            size: 1
          }
        }
      }
    }
  }
  attr {
    key: "dtype"
    value {
      type: DT_INT32
    }
  }
  attr {
    key: "value"
    value {
      tensor {
        dtype: DT_INT32
        tensor_shape {
          dim {
            size: 1
          }
        }
        int_val: 1
      }
    }
  }
}
node {
  name: "report_uninitialized_variables/boolean_mask/strided_slice_1"
  op: "StridedSlice"
  input: "report_uninitialized_variables/boolean_mask/Shape_1"
  input: "report_uninitialized_variables/boolean_mask/strided_slice_1/stack"
  input: "report_uninitialized_variables/boolean_mask/strided_slice_1/stack_1"
  input: "report_uninitialized_variables/boolean_mask/strided_slice_1/stack_2"
  device: "/device:CPU:0"
  attr {
    key: "Index"
    value {
      type: DT_INT32
    }
  }
  attr {
    key: "T"
    value {
      type: DT_INT32
    }
  }
  attr {
    key: "_output_shapes"
    value {
      list {
        shape {
          dim {
          }
        }
      }
    }
  }
  attr {
    key: "begin_mask"
    value {
      i: 1
    }
  }
  attr {
    key: "ellipsis_mask"
    value {
      i: 0
    }
  }
  attr {
    key: "end_mask"
    value {
      i: 0
    }
  }
  attr {
    key: "new_axis_mask"
    value {
      i: 0
    }
  }
  attr {
    key: "shrink_axis_mask"
    value {
      i: 0
    }
  }
}
node {
  name: "report_uninitialized_variables/boolean_mask/Shape_2"
  op: "Const"
  device: "/device:CPU:0"
  attr {
    key: "_output_shapes"
    value {
      list {
        shape {
          dim {
            size: 1
          }
        }
      }
    }
  }
  attr {
    key: "dtype"
    value {
      type: DT_INT32
    }
  }
  attr {
    key: "value"
    value {
      tensor {
        dtype: DT_INT32
        tensor_shape {
          dim {
            size: 1
          }
        }
        int_val: 111
      }
    }
  }
}
node {
  name: "report_uninitialized_variables/boolean_mask/strided_slice_2/stack"
  op: "Const"
  device: "/device:CPU:0"
  attr {
    key: "_output_shapes"
    value {
      list {
        shape {
          dim {
            size: 1
          }
        }
      }
    }
  }
  attr {
    key: "dtype"
    value {
      type: DT_INT32
    }
  }
  attr {
    key: "value"
    value {
      tensor {
        dtype: DT_INT32
        tensor_shape {
          dim {
            size: 1
          }
        }
        int_val: 1
      }
    }
  }
}
node {
  name: "report_uninitialized_variables/boolean_mask/strided_slice_2/stack_1"
  op: "Const"
  device: "/device:CPU:0"
  attr {
    key: "_output_shapes"
    value {
      list {
        shape {
          dim {
            size: 1
          }
        }
      }
    }
  }
  attr {
    key: "dtype"
    value {
      type: DT_INT32
    }
  }
  attr {
    key: "value"
    value {
      tensor {
        dtype: DT_INT32
        tensor_shape {
          dim {
            size: 1
          }
        }
        int_val: 0
      }
    }
  }
}
node {
  name: "report_uninitialized_variables/boolean_mask/strided_slice_2/stack_2"
  op: "Const"
  device: "/device:CPU:0"
  attr {
    key: "_output_shapes"
    value {
      list {
        shape {
          dim {
            size: 1
          }
        }
      }
    }
  }
  attr {
    key: "dtype"
    value {
      type: DT_INT32
    }
  }
  attr {
    key: "value"
    value {
      tensor {
        dtype: DT_INT32
        tensor_shape {
          dim {
            size: 1
          }
        }
        int_val: 1
      }
    }
  }
}
node {
  name: "report_uninitialized_variables/boolean_mask/strided_slice_2"
  op: "StridedSlice"
  input: "report_uninitialized_variables/boolean_mask/Shape_2"
  input: "report_uninitialized_variables/boolean_mask/strided_slice_2/stack"
  input: "report_uninitialized_variables/boolean_mask/strided_slice_2/stack_1"
  input: "report_uninitialized_variables/boolean_mask/strided_slice_2/stack_2"
  device: "/device:CPU:0"
  attr {
    key: "Index"
    value {
      type: DT_INT32
    }
  }
  attr {
    key: "T"
    value {
      type: DT_INT32
    }
  }
  attr {
    key: "_output_shapes"
    value {
      list {
        shape {
          dim {
          }
        }
      }
    }
  }
  attr {
    key: "begin_mask"
    value {
      i: 0
    }
  }
  attr {
    key: "ellipsis_mask"
    value {
      i: 0
    }
  }
  attr {
    key: "end_mask"
    value {
      i: 1
    }
  }
  attr {
    key: "new_axis_mask"
    value {
      i: 0
    }
  }
  attr {
    key: "shrink_axis_mask"
    value {
      i: 0
    }
  }
}
node {
  name: "report_uninitialized_variables/boolean_mask/concat/values_1"
  op: "Pack"
  input: "report_uninitialized_variables/boolean_mask/Prod"
  device: "/device:CPU:0"
  attr {
    key: "N"
    value {
      i: 1
    }
  }
  attr {
    key: "T"
    value {
      type: DT_INT32
    }
  }
  attr {
    key: "_output_shapes"
    value {
      list {
        shape {
          dim {
            size: 1
          }
        }
      }
    }
  }
  attr {
    key: "axis"
    value {
      i: 0
    }
  }
}
node {
  name: "report_uninitialized_variables/boolean_mask/concat/axis"
  op: "Const"
  device: "/device:CPU:0"
  attr {
    key: "_output_shapes"
    value {
      list {
        shape {
        }
      }
    }
  }
  attr {
    key: "dtype"
    value {
      type: DT_INT32
    }
  }
  attr {
    key: "value"
    value {
      tensor {
        dtype: DT_INT32
        tensor_shape {
        }
        int_val: 0
      }
    }
  }
}
node {
  name: "report_uninitialized_variables/boolean_mask/concat"
  op: "ConcatV2"
  input: "report_uninitialized_variables/boolean_mask/strided_slice_1"
  input: "report_uninitialized_variables/boolean_mask/concat/values_1"
  input: "report_uninitialized_variables/boolean_mask/strided_slice_2"
  input: "report_uninitialized_variables/boolean_mask/concat/axis"
  device: "/device:CPU:0"
  attr {
    key: "N"
    value {
      i: 3
    }
  }
  attr {
    key: "T"
    value {
      type: DT_INT32
    }
  }
  attr {
    key: "Tidx"
    value {
      type: DT_INT32
    }
  }
  attr {
    key: "_output_shapes"
    value {
      list {
        shape {
          dim {
            size: 1
          }
        }
      }
    }
  }
}
node {
  name: "report_uninitialized_variables/boolean_mask/Reshape"
  op: "Reshape"
  input: "report_uninitialized_variables/Const"
  input: "report_uninitialized_variables/boolean_mask/concat"
  device: "/device:CPU:0"
  attr {
    key: "T"
    value {
      type: DT_STRING
    }
  }
  attr {
    key: "Tshape"
    value {
      type: DT_INT32
    }
  }
  attr {
    key: "_output_shapes"
    value {
      list {
        shape {
          dim {
            size: 111
          }
        }
      }
    }
  }
}
node {
  name: "report_uninitialized_variables/boolean_mask/Reshape_1/shape"
  op: "Const"
  device: "/device:CPU:0"
  attr {
    key: "_output_shapes"
    value {
      list {
        shape {
          dim {
            size: 1
          }
        }
      }
    }
  }
  attr {
    key: "dtype"
    value {
      type: DT_INT32
    }
  }
  attr {
    key: "value"
    value {
      tensor {
        dtype: DT_INT32
        tensor_shape {
          dim {
            size: 1
          }
        }
        int_val: -1
      }
    }
  }
}
node {
  name: "report_uninitialized_variables/boolean_mask/Reshape_1"
  op: "Reshape"
  input: "report_uninitialized_variables/LogicalNot"
  input: "report_uninitialized_variables/boolean_mask/Reshape_1/shape"
  device: "/device:CPU:0"
  attr {
    key: "T"
    value {
      type: DT_BOOL
    }
  }
  attr {
    key: "Tshape"
    value {
      type: DT_INT32
    }
  }
  attr {
    key: "_output_shapes"
    value {
      list {
        shape {
          dim {
            size: 111
          }
        }
      }
    }
  }
}
node {
  name: "report_uninitialized_variables/boolean_mask/Where"
  op: "Where"
  input: "report_uninitialized_variables/boolean_mask/Reshape_1"
  device: "/device:CPU:0"
  attr {
    key: "T"
    value {
      type: DT_BOOL
    }
  }
  attr {
    key: "_output_shapes"
    value {
      list {
        shape {
          dim {
            size: -1
          }
          dim {
            size: 1
          }
        }
      }
    }
  }
}
node {
  name: "report_uninitialized_variables/boolean_mask/Squeeze"
  op: "Squeeze"
  input: "report_uninitialized_variables/boolean_mask/Where"
  device: "/device:CPU:0"
  attr {
    key: "T"
    value {
      type: DT_INT64
    }
  }
  attr {
    key: "_output_shapes"
    value {
      list {
        shape {
          dim {
            size: -1
          }
        }
      }
    }
  }
  attr {
    key: "squeeze_dims"
    value {
      list {
        i: 1
      }
    }
  }
}
node {
  name: "report_uninitialized_variables/boolean_mask/Gather"
  op: "Gather"
  input: "report_uninitialized_variables/boolean_mask/Reshape"
  input: "report_uninitialized_variables/boolean_mask/Squeeze"
  device: "/device:CPU:0"
  attr {
    key: "Tindices"
    value {
      type: DT_INT64
    }
  }
  attr {
    key: "Tparams"
    value {
      type: DT_STRING
    }
  }
  attr {
    key: "_output_shapes"
    value {
      list {
        shape {
          dim {
            size: -1
          }
        }
      }
    }
  }
  attr {
    key: "validate_indices"
    value {
      b: true
    }
  }
}
node {
  name: "init"
  op: "NoOp"
  input: "^global_step/Assign"
  input: "^CNN/conv2d/kernel/Assign"
  input: "^CNN/conv2d/bias/Assign"
  input: "^CNN/conv2d_1/kernel/Assign"
  input: "^CNN/conv2d_1/bias/Assign"
  input: "^CNN/conv2d_2/kernel/Assign"
  input: "^CNN/conv2d_2/bias/Assign"
  input: "^CNN/conv2d_3/kernel/Assign"
  input: "^CNN/conv2d_3/bias/Assign"
  input: "^CNN/conv2d_4/kernel/Assign"
  input: "^CNN/conv2d_4/bias/Assign"
  input: "^CNN/conv2d_5/kernel/Assign"
  input: "^CNN/conv2d_5/bias/Assign"
  input: "^CNN/conv2d_6/kernel/Assign"
  input: "^CNN/conv2d_6/bias/Assign"
  input: "^CNN/conv2d_7/kernel/Assign"
  input: "^CNN/conv2d_7/bias/Assign"
  input: "^CNN/conv2d_8/kernel/Assign"
  input: "^CNN/conv2d_8/bias/Assign"
  input: "^CNN/conv2d_9/kernel/Assign"
  input: "^CNN/conv2d_9/bias/Assign"
  input: "^Mean_Prediction/dense/kernel/Assign"
  input: "^Mean_Prediction/dense/bias/Assign"
  input: "^Mean_Prediction/dense_1/kernel/Assign"
  input: "^Mean_Prediction/dense_1/bias/Assign"
  input: "^Mean_Prediction/dense_2/kernel/Assign"
  input: "^Mean_Prediction/dense_2/bias/Assign"
  input: "^Mean_Prediction/dense_3/kernel/Assign"
  input: "^Mean_Prediction/dense_3/bias/Assign"
  input: "^Variance_Prediction/dense/kernel/Assign"
  input: "^Variance_Prediction/dense/bias/Assign"
  input: "^Variance_Prediction/dense_1/kernel/Assign"
  input: "^Variance_Prediction/dense_1/bias/Assign"
  input: "^Variance_Prediction/dense_2/kernel/Assign"
  input: "^Variance_Prediction/dense_2/bias/Assign"
  input: "^Variance_Prediction/dense_3/kernel/Assign"
  input: "^Variance_Prediction/dense_3/bias/Assign"
  input: "^train_op/beta1_power/Assign"
  input: "^train_op/beta2_power/Assign"
  input: "^CNN/conv2d/kernel/Adam/Assign"
  input: "^CNN/conv2d/kernel/Adam_1/Assign"
  input: "^CNN/conv2d/bias/Adam/Assign"
  input: "^CNN/conv2d/bias/Adam_1/Assign"
  input: "^CNN/conv2d_1/kernel/Adam/Assign"
  input: "^CNN/conv2d_1/kernel/Adam_1/Assign"
  input: "^CNN/conv2d_1/bias/Adam/Assign"
  input: "^CNN/conv2d_1/bias/Adam_1/Assign"
  input: "^CNN/conv2d_2/kernel/Adam/Assign"
  input: "^CNN/conv2d_2/kernel/Adam_1/Assign"
  input: "^CNN/conv2d_2/bias/Adam/Assign"
  input: "^CNN/conv2d_2/bias/Adam_1/Assign"
  input: "^CNN/conv2d_3/kernel/Adam/Assign"
  input: "^CNN/conv2d_3/kernel/Adam_1/Assign"
  input: "^CNN/conv2d_3/bias/Adam/Assign"
  input: "^CNN/conv2d_3/bias/Adam_1/Assign"
  input: "^CNN/conv2d_4/kernel/Adam/Assign"
  input: "^CNN/conv2d_4/kernel/Adam_1/Assign"
  input: "^CNN/conv2d_4/bias/Adam/Assign"
  input: "^CNN/conv2d_4/bias/Adam_1/Assign"
  input: "^CNN/conv2d_5/kernel/Adam/Assign"
  input: "^CNN/conv2d_5/kernel/Adam_1/Assign"
  input: "^CNN/conv2d_5/bias/Adam/Assign"
  input: "^CNN/conv2d_5/bias/Adam_1/Assign"
  input: "^CNN/conv2d_6/kernel/Adam/Assign"
  input: "^CNN/conv2d_6/kernel/Adam_1/Assign"
  input: "^CNN/conv2d_6/bias/Adam/Assign"
  input: "^CNN/conv2d_6/bias/Adam_1/Assign"
  input: "^CNN/conv2d_7/kernel/Adam/Assign"
  input: "^CNN/conv2d_7/kernel/Adam_1/Assign"
  input: "^CNN/conv2d_7/bias/Adam/Assign"
  input: "^CNN/conv2d_7/bias/Adam_1/Assign"
  input: "^CNN/conv2d_8/kernel/Adam/Assign"
  input: "^CNN/conv2d_8/kernel/Adam_1/Assign"
  input: "^CNN/conv2d_8/bias/Adam/Assign"
  input: "^CNN/conv2d_8/bias/Adam_1/Assign"
  input: "^CNN/conv2d_9/kernel/Adam/Assign"
  input: "^CNN/conv2d_9/kernel/Adam_1/Assign"
  input: "^CNN/conv2d_9/bias/Adam/Assign"
  input: "^CNN/conv2d_9/bias/Adam_1/Assign"
  input: "^Variance_Prediction/dense/kernel/Adam/Assign"
  input: "^Variance_Prediction/dense/kernel/Adam_1/Assign"
  input: "^Variance_Prediction/dense/bias/Adam/Assign"
  input: "^Variance_Prediction/dense/bias/Adam_1/Assign"
  input: "^Variance_Prediction/dense_1/kernel/Adam/Assign"
  input: "^Variance_Prediction/dense_1/kernel/Adam_1/Assign"
  input: "^Variance_Prediction/dense_1/bias/Adam/Assign"
  input: "^Variance_Prediction/dense_1/bias/Adam_1/Assign"
  input: "^Variance_Prediction/dense_2/kernel/Adam/Assign"
  input: "^Variance_Prediction/dense_2/kernel/Adam_1/Assign"
  input: "^Variance_Prediction/dense_2/bias/Adam/Assign"
  input: "^Variance_Prediction/dense_2/bias/Adam_1/Assign"
  input: "^Variance_Prediction/dense_3/kernel/Adam/Assign"
  input: "^Variance_Prediction/dense_3/kernel/Adam_1/Assign"
  input: "^Variance_Prediction/dense_3/bias/Adam/Assign"
  input: "^Variance_Prediction/dense_3/bias/Adam_1/Assign"
  input: "^Mean_Prediction/dense/kernel/Adam/Assign"
  input: "^Mean_Prediction/dense/kernel/Adam_1/Assign"
  input: "^Mean_Prediction/dense/bias/Adam/Assign"
  input: "^Mean_Prediction/dense/bias/Adam_1/Assign"
  input: "^Mean_Prediction/dense_1/kernel/Adam/Assign"
  input: "^Mean_Prediction/dense_1/kernel/Adam_1/Assign"
  input: "^Mean_Prediction/dense_1/bias/Adam/Assign"
  input: "^Mean_Prediction/dense_1/bias/Adam_1/Assign"
  input: "^Mean_Prediction/dense_2/kernel/Adam/Assign"
  input: "^Mean_Prediction/dense_2/kernel/Adam_1/Assign"
  input: "^Mean_Prediction/dense_2/bias/Adam/Assign"
  input: "^Mean_Prediction/dense_2/bias/Adam_1/Assign"
  input: "^Mean_Prediction/dense_3/kernel/Adam/Assign"
  input: "^Mean_Prediction/dense_3/kernel/Adam_1/Assign"
  input: "^Mean_Prediction/dense_3/bias/Adam/Assign"
  input: "^Mean_Prediction/dense_3/bias/Adam_1/Assign"
}
node {
  name: "init_1"
  op: "NoOp"
}
node {
  name: "init_all_tables"
  op: "NoOp"
}
node {
  name: "group_deps"
  op: "NoOp"
  input: "^init_1"
  input: "^init_all_tables"
}
node {
  name: "Merge_1/MergeSummary"
  op: "MergeSummary"
  input: "train_loss"
  input: "mean_loss"
  input: "log_loss"
  input: "variance_norm"
  input: "Validation_Error"
  attr {
    key: "N"
    value {
      i: 5
    }
  }
  attr {
    key: "_output_shapes"
    value {
      list {
        shape {
        }
      }
    }
  }
}
library {
  function {
    signature {
      name: "tf_map_func_bc3912a3"
      input_arg {
        name: "arg0"
        type: DT_STRING
      }
      input_arg {
        name: "arg1"
        type: DT_FLOAT
      }
      output_arg {
        name: "truediv"
        type: DT_FLOAT
      }
      output_arg {
        name: "arg1"
        type: DT_FLOAT
      }
      description: "A wrapper for Defun that facilitates shape inference."
    }
    node_def {
      name: "ReadFile"
      op: "ReadFile"
      input: "arg0"
    }
    node_def {
      name: "DecodePng"
      op: "DecodePng"
      input: "ReadFile:contents:0"
      attr {
        key: "channels"
        value {
          i: 3
        }
      }
      attr {
        key: "dtype"
        value {
          type: DT_UINT8
        }
      }
    }
    node_def {
      name: "resize_images/ExpandDims/dim"
      op: "Const"
      attr {
        key: "dtype"
        value {
          type: DT_INT32
        }
      }
      attr {
        key: "value"
        value {
          tensor {
            dtype: DT_INT32
            tensor_shape {
            }
            int_val: 0
          }
        }
      }
    }
    node_def {
      name: "resize_images/ExpandDims"
      op: "ExpandDims"
      input: "DecodePng:image:0"
      input: "resize_images/ExpandDims/dim:output:0"
      attr {
        key: "T"
        value {
          type: DT_UINT8
        }
      }
      attr {
        key: "Tdim"
        value {
          type: DT_INT32
        }
      }
    }
    node_def {
      name: "resize_images/size"
      op: "Const"
      attr {
        key: "dtype"
        value {
          type: DT_INT32
        }
      }
      attr {
        key: "value"
        value {
          tensor {
            dtype: DT_INT32
            tensor_shape {
              dim {
                size: 2
              }
            }
            tensor_content: "\360\000\000\000@\001\000\000"
          }
        }
      }
    }
    node_def {
      name: "resize_images/ResizeBilinear"
      op: "ResizeBilinear"
      input: "resize_images/ExpandDims:output:0"
      input: "resize_images/size:output:0"
      attr {
        key: "T"
        value {
          type: DT_UINT8
        }
      }
      attr {
        key: "align_corners"
        value {
          b: false
        }
      }
    }
    node_def {
      name: "resize_images/Squeeze"
      op: "Squeeze"
      input: "resize_images/ResizeBilinear:resized_images:0"
      attr {
        key: "T"
        value {
          type: DT_FLOAT
        }
      }
      attr {
        key: "squeeze_dims"
        value {
          list {
            i: 0
          }
        }
      }
    }
    node_def {
      name: "truediv/y"
      op: "Const"
      attr {
        key: "dtype"
        value {
          type: DT_FLOAT
        }
      }
      attr {
        key: "value"
        value {
          tensor {
            dtype: DT_FLOAT
            tensor_shape {
            }
            float_val: 255.0
          }
        }
      }
    }
    node_def {
      name: "truediv"
      op: "RealDiv"
      input: "resize_images/Squeeze:output:0"
      input: "truediv/y:output:0"
      attr {
        key: "T"
        value {
          type: DT_FLOAT
        }
      }
    }
    ret {
      key: "arg1"
      value: "arg1"
    }
    ret {
      key: "truediv"
      value: "truediv:z:0"
    }
  }
}
versions {
  producer: 26
  min_consumer: 12
}
