<?xml version="1.0" ?>
<net batch="1" name="optimized_graph_FP16" version="3">
	<layers>
		<layer id="0" name="raw_input" precision="FP16" type="Input">
			<output>
				<port id="0">
					<dim>1</dim>
					<dim>3</dim>
					<dim>240</dim>
					<dim>320</dim>
				</port>
			</output>
		</layer>
		<layer id="1" name="CNN/conv2d/Conv2D" precision="FP16" type="Convolution">
			<data auto_pad="same_upper" dilations="1,1" group="1" kernel="5,5" output="32" pads_begin="1,1" pads_end="2,2" strides="2,2"/>
			<input>
				<port id="0">
					<dim>1</dim>
					<dim>3</dim>
					<dim>240</dim>
					<dim>320</dim>
				</port>
			</input>
			<output>
				<port id="2">
					<dim>1</dim>
					<dim>32</dim>
					<dim>120</dim>
					<dim>160</dim>
				</port>
			</output>
			<blobs>
				<weights offset="0" size="4800"/>
			</blobs>
		</layer>
		<layer id="2" name="CNN/conv2d/BiasAdd" precision="FP16" type="ScaleShift">
			<input>
				<port id="0">
					<dim>1</dim>
					<dim>32</dim>
					<dim>120</dim>
					<dim>160</dim>
				</port>
			</input>
			<output>
				<port id="3">
					<dim>1</dim>
					<dim>32</dim>
					<dim>120</dim>
					<dim>160</dim>
				</port>
			</output>
			<blobs>
				<weights offset="4800" size="64"/>
				<biases offset="4864" size="64"/>
			</blobs>
		</layer>
		<layer id="3" name="CNN/max_pooling2d/MaxPool" precision="FP16" type="Pooling">
			<data auto_pad="valid" exclude-pad="true" kernel="2,2" pads_begin="0,0" pads_end="0,0" pool-method="max" strides="2,2"/>
			<input>
				<port id="0">
					<dim>1</dim>
					<dim>32</dim>
					<dim>120</dim>
					<dim>160</dim>
				</port>
			</input>
			<output>
				<port id="1">
					<dim>1</dim>
					<dim>32</dim>
					<dim>60</dim>
					<dim>80</dim>
				</port>
			</output>
		</layer>
		<layer id="4" name="LeakyReLU_318" precision="FP16" type="ReLU">
			<data negative_slope="0.20000000298023224"/>
			<input>
				<port id="0">
					<dim>1</dim>
					<dim>32</dim>
					<dim>60</dim>
					<dim>80</dim>
				</port>
			</input>
			<output>
				<port id="1">
					<dim>1</dim>
					<dim>32</dim>
					<dim>60</dim>
					<dim>80</dim>
				</port>
			</output>
		</layer>
		<layer id="5" name="CNN/conv2d_1/Conv2D" precision="FP16" type="Convolution">
			<data auto_pad="same_upper" dilations="1,1" group="1" kernel="3,3" output="32" pads_begin="0,0" pads_end="1,1" strides="2,2"/>
			<input>
				<port id="0">
					<dim>1</dim>
					<dim>32</dim>
					<dim>60</dim>
					<dim>80</dim>
				</port>
			</input>
			<output>
				<port id="2">
					<dim>1</dim>
					<dim>32</dim>
					<dim>30</dim>
					<dim>40</dim>
				</port>
			</output>
			<blobs>
				<weights offset="4928" size="18432"/>
			</blobs>
		</layer>
		<layer id="6" name="CNN/conv2d_1/BiasAdd" precision="FP16" type="ScaleShift">
			<input>
				<port id="0">
					<dim>1</dim>
					<dim>32</dim>
					<dim>30</dim>
					<dim>40</dim>
				</port>
			</input>
			<output>
				<port id="3">
					<dim>1</dim>
					<dim>32</dim>
					<dim>30</dim>
					<dim>40</dim>
				</port>
			</output>
			<blobs>
				<weights offset="4800" size="64"/>
				<biases offset="23360" size="64"/>
			</blobs>
		</layer>
		<layer id="7" name="CNN/conv2d_2/Conv2D" precision="FP16" type="Convolution">
			<data auto_pad="same_upper" dilations="1,1" group="1" kernel="3,3" output="32" pads_begin="1,1" pads_end="1,1" strides="1,1"/>
			<input>
				<port id="0">
					<dim>1</dim>
					<dim>32</dim>
					<dim>30</dim>
					<dim>40</dim>
				</port>
			</input>
			<output>
				<port id="2">
					<dim>1</dim>
					<dim>32</dim>
					<dim>30</dim>
					<dim>40</dim>
				</port>
			</output>
			<blobs>
				<weights offset="23424" size="18432"/>
			</blobs>
		</layer>
		<layer id="8" name="CNN/conv2d_2/BiasAdd" precision="FP16" type="ScaleShift">
			<input>
				<port id="0">
					<dim>1</dim>
					<dim>32</dim>
					<dim>30</dim>
					<dim>40</dim>
				</port>
			</input>
			<output>
				<port id="3">
					<dim>1</dim>
					<dim>32</dim>
					<dim>30</dim>
					<dim>40</dim>
				</port>
			</output>
			<blobs>
				<weights offset="4800" size="64"/>
				<biases offset="41856" size="64"/>
			</blobs>
		</layer>
		<layer id="9" name="CNN/conv2d_3/Conv2D" precision="FP16" type="Convolution">
			<data auto_pad="same_upper" dilations="1,1" group="1" kernel="1,1" output="32" pads_begin="0,0" pads_end="0,0" strides="2,2"/>
			<input>
				<port id="0">
					<dim>1</dim>
					<dim>32</dim>
					<dim>60</dim>
					<dim>80</dim>
				</port>
			</input>
			<output>
				<port id="2">
					<dim>1</dim>
					<dim>32</dim>
					<dim>30</dim>
					<dim>40</dim>
				</port>
			</output>
			<blobs>
				<weights offset="41920" size="2048"/>
			</blobs>
		</layer>
		<layer id="10" name="CNN/conv2d_3/BiasAdd" precision="FP16" type="ScaleShift">
			<input>
				<port id="0">
					<dim>1</dim>
					<dim>32</dim>
					<dim>30</dim>
					<dim>40</dim>
				</port>
			</input>
			<output>
				<port id="3">
					<dim>1</dim>
					<dim>32</dim>
					<dim>30</dim>
					<dim>40</dim>
				</port>
			</output>
			<blobs>
				<weights offset="4800" size="64"/>
				<biases offset="41856" size="64"/>
			</blobs>
		</layer>
		<layer id="11" name="CNN/add" precision="FP16" type="Eltwise">
			<data operation="sum"/>
			<input>
				<port id="0">
					<dim>1</dim>
					<dim>32</dim>
					<dim>30</dim>
					<dim>40</dim>
				</port>
				<port id="1">
					<dim>1</dim>
					<dim>32</dim>
					<dim>30</dim>
					<dim>40</dim>
				</port>
			</input>
			<output>
				<port id="2">
					<dim>1</dim>
					<dim>32</dim>
					<dim>30</dim>
					<dim>40</dim>
				</port>
			</output>
		</layer>
		<layer id="12" name="LeakyReLU_323" precision="FP16" type="ReLU">
			<data negative_slope="0.20000000298023224"/>
			<input>
				<port id="0">
					<dim>1</dim>
					<dim>32</dim>
					<dim>30</dim>
					<dim>40</dim>
				</port>
			</input>
			<output>
				<port id="1">
					<dim>1</dim>
					<dim>32</dim>
					<dim>30</dim>
					<dim>40</dim>
				</port>
			</output>
		</layer>
		<layer id="13" name="CNN/conv2d_4/Conv2D" precision="FP16" type="Convolution">
			<data auto_pad="same_upper" dilations="1,1" group="1" kernel="3,3" output="64" pads_begin="0,0" pads_end="1,1" strides="2,2"/>
			<input>
				<port id="0">
					<dim>1</dim>
					<dim>32</dim>
					<dim>30</dim>
					<dim>40</dim>
				</port>
			</input>
			<output>
				<port id="2">
					<dim>1</dim>
					<dim>64</dim>
					<dim>15</dim>
					<dim>20</dim>
				</port>
			</output>
			<blobs>
				<weights offset="43968" size="36864"/>
			</blobs>
		</layer>
		<layer id="14" name="CNN/conv2d_4/BiasAdd" precision="FP16" type="ScaleShift">
			<input>
				<port id="0">
					<dim>1</dim>
					<dim>64</dim>
					<dim>15</dim>
					<dim>20</dim>
				</port>
			</input>
			<output>
				<port id="3">
					<dim>1</dim>
					<dim>64</dim>
					<dim>15</dim>
					<dim>20</dim>
				</port>
			</output>
			<blobs>
				<weights offset="80832" size="128"/>
				<biases offset="80960" size="128"/>
			</blobs>
		</layer>
		<layer id="15" name="CNN/conv2d_5/Conv2D" precision="FP16" type="Convolution">
			<data auto_pad="same_upper" dilations="1,1" group="1" kernel="3,3" output="64" pads_begin="1,1" pads_end="1,1" strides="1,1"/>
			<input>
				<port id="0">
					<dim>1</dim>
					<dim>64</dim>
					<dim>15</dim>
					<dim>20</dim>
				</port>
			</input>
			<output>
				<port id="2">
					<dim>1</dim>
					<dim>64</dim>
					<dim>15</dim>
					<dim>20</dim>
				</port>
			</output>
			<blobs>
				<weights offset="81088" size="73728"/>
			</blobs>
		</layer>
		<layer id="16" name="CNN/conv2d_5/BiasAdd" precision="FP16" type="ScaleShift">
			<input>
				<port id="0">
					<dim>1</dim>
					<dim>64</dim>
					<dim>15</dim>
					<dim>20</dim>
				</port>
			</input>
			<output>
				<port id="3">
					<dim>1</dim>
					<dim>64</dim>
					<dim>15</dim>
					<dim>20</dim>
				</port>
			</output>
			<blobs>
				<weights offset="80832" size="128"/>
				<biases offset="154816" size="128"/>
			</blobs>
		</layer>
		<layer id="17" name="CNN/conv2d_6/Conv2D" precision="FP16" type="Convolution">
			<data auto_pad="same_upper" dilations="1,1" group="1" kernel="1,1" output="64" pads_begin="0,0" pads_end="0,0" strides="2,2"/>
			<input>
				<port id="0">
					<dim>1</dim>
					<dim>32</dim>
					<dim>30</dim>
					<dim>40</dim>
				</port>
			</input>
			<output>
				<port id="2">
					<dim>1</dim>
					<dim>64</dim>
					<dim>15</dim>
					<dim>20</dim>
				</port>
			</output>
			<blobs>
				<weights offset="154944" size="4096"/>
			</blobs>
		</layer>
		<layer id="18" name="CNN/conv2d_6/BiasAdd" precision="FP16" type="ScaleShift">
			<input>
				<port id="0">
					<dim>1</dim>
					<dim>64</dim>
					<dim>15</dim>
					<dim>20</dim>
				</port>
			</input>
			<output>
				<port id="3">
					<dim>1</dim>
					<dim>64</dim>
					<dim>15</dim>
					<dim>20</dim>
				</port>
			</output>
			<blobs>
				<weights offset="80832" size="128"/>
				<biases offset="154816" size="128"/>
			</blobs>
		</layer>
		<layer id="19" name="CNN/add_1" precision="FP16" type="Eltwise">
			<data operation="sum"/>
			<input>
				<port id="0">
					<dim>1</dim>
					<dim>64</dim>
					<dim>15</dim>
					<dim>20</dim>
				</port>
				<port id="1">
					<dim>1</dim>
					<dim>64</dim>
					<dim>15</dim>
					<dim>20</dim>
				</port>
			</input>
			<output>
				<port id="2">
					<dim>1</dim>
					<dim>64</dim>
					<dim>15</dim>
					<dim>20</dim>
				</port>
			</output>
		</layer>
		<layer id="20" name="LeakyReLU_320" precision="FP16" type="ReLU">
			<data negative_slope="0.20000000298023224"/>
			<input>
				<port id="0">
					<dim>1</dim>
					<dim>64</dim>
					<dim>15</dim>
					<dim>20</dim>
				</port>
			</input>
			<output>
				<port id="1">
					<dim>1</dim>
					<dim>64</dim>
					<dim>15</dim>
					<dim>20</dim>
				</port>
			</output>
		</layer>
		<layer id="21" name="CNN/conv2d_7/Conv2D" precision="FP16" type="Convolution">
			<data auto_pad="same_upper" dilations="1,1" group="1" kernel="3,3" output="64" pads_begin="1,0" pads_end="1,1" strides="2,2"/>
			<input>
				<port id="0">
					<dim>1</dim>
					<dim>64</dim>
					<dim>15</dim>
					<dim>20</dim>
				</port>
			</input>
			<output>
				<port id="2">
					<dim>1</dim>
					<dim>64</dim>
					<dim>8</dim>
					<dim>10</dim>
				</port>
			</output>
			<blobs>
				<weights offset="159040" size="73728"/>
			</blobs>
		</layer>
		<layer id="22" name="CNN/conv2d_7/BiasAdd" precision="FP16" type="ScaleShift">
			<input>
				<port id="0">
					<dim>1</dim>
					<dim>64</dim>
					<dim>8</dim>
					<dim>10</dim>
				</port>
			</input>
			<output>
				<port id="3">
					<dim>1</dim>
					<dim>64</dim>
					<dim>8</dim>
					<dim>10</dim>
				</port>
			</output>
			<blobs>
				<weights offset="80832" size="128"/>
				<biases offset="232768" size="128"/>
			</blobs>
		</layer>
		<layer id="23" name="CNN/conv2d_8/Conv2D" precision="FP16" type="Convolution">
			<data auto_pad="same_upper" dilations="1,1" group="1" kernel="3,3" output="64" pads_begin="1,1" pads_end="1,1" strides="1,1"/>
			<input>
				<port id="0">
					<dim>1</dim>
					<dim>64</dim>
					<dim>8</dim>
					<dim>10</dim>
				</port>
			</input>
			<output>
				<port id="2">
					<dim>1</dim>
					<dim>64</dim>
					<dim>8</dim>
					<dim>10</dim>
				</port>
			</output>
			<blobs>
				<weights offset="232896" size="73728"/>
			</blobs>
		</layer>
		<layer id="24" name="CNN/conv2d_8/BiasAdd" precision="FP16" type="ScaleShift">
			<input>
				<port id="0">
					<dim>1</dim>
					<dim>64</dim>
					<dim>8</dim>
					<dim>10</dim>
				</port>
			</input>
			<output>
				<port id="3">
					<dim>1</dim>
					<dim>64</dim>
					<dim>8</dim>
					<dim>10</dim>
				</port>
			</output>
			<blobs>
				<weights offset="80832" size="128"/>
				<biases offset="306624" size="128"/>
			</blobs>
		</layer>
		<layer id="25" name="CNN/conv2d_9/Conv2D" precision="FP16" type="Convolution">
			<data auto_pad="same_upper" dilations="1,1" group="1" kernel="1,1" output="64" pads_begin="0,0" pads_end="0,0" strides="2,2"/>
			<input>
				<port id="0">
					<dim>1</dim>
					<dim>64</dim>
					<dim>15</dim>
					<dim>20</dim>
				</port>
			</input>
			<output>
				<port id="2">
					<dim>1</dim>
					<dim>64</dim>
					<dim>8</dim>
					<dim>10</dim>
				</port>
			</output>
			<blobs>
				<weights offset="306752" size="8192"/>
			</blobs>
		</layer>
		<layer id="26" name="CNN/conv2d_9/BiasAdd" precision="FP16" type="ScaleShift">
			<input>
				<port id="0">
					<dim>1</dim>
					<dim>64</dim>
					<dim>8</dim>
					<dim>10</dim>
				</port>
			</input>
			<output>
				<port id="3">
					<dim>1</dim>
					<dim>64</dim>
					<dim>8</dim>
					<dim>10</dim>
				</port>
			</output>
			<blobs>
				<weights offset="80832" size="128"/>
				<biases offset="306624" size="128"/>
			</blobs>
		</layer>
		<layer id="27" name="CNN/add_2" precision="FP16" type="Eltwise">
			<data operation="sum"/>
			<input>
				<port id="0">
					<dim>1</dim>
					<dim>64</dim>
					<dim>8</dim>
					<dim>10</dim>
				</port>
				<port id="1">
					<dim>1</dim>
					<dim>64</dim>
					<dim>8</dim>
					<dim>10</dim>
				</port>
			</input>
			<output>
				<port id="2">
					<dim>1</dim>
					<dim>64</dim>
					<dim>8</dim>
					<dim>10</dim>
				</port>
			</output>
		</layer>
		<layer id="28" name="LeakyReLU_324" precision="FP16" type="ReLU">
			<data negative_slope="0.20000000298023224"/>
			<input>
				<port id="0">
					<dim>1</dim>
					<dim>64</dim>
					<dim>8</dim>
					<dim>10</dim>
				</port>
			</input>
			<output>
				<port id="1">
					<dim>1</dim>
					<dim>64</dim>
					<dim>8</dim>
					<dim>10</dim>
				</port>
			</output>
		</layer>
		<layer id="29" name="CNN/flatten/Reshape" precision="FP16" type="Reshape">
			<data axis="0" dim="1,-1" num_axes="-1"/>
			<input>
				<port id="0">
					<dim>1</dim>
					<dim>64</dim>
					<dim>8</dim>
					<dim>10</dim>
				</port>
			</input>
			<output>
				<port id="1">
					<dim>1</dim>
					<dim>5120</dim>
				</port>
			</output>
		</layer>
		<layer id="30" name="Mean_Prediction/dense/MatMul" precision="FP16" type="FullyConnected">
			<data out-size="128"/>
			<input>
				<port id="0">
					<dim>1</dim>
					<dim>5120</dim>
				</port>
			</input>
			<output>
				<port id="2">
					<dim>1</dim>
					<dim>128</dim>
				</port>
			</output>
			<blobs>
				<weights offset="314944" size="1310720"/>
			</blobs>
		</layer>
		<layer id="31" name="Mean_Prediction/dense/BiasAdd" precision="FP16" type="ScaleShift">
			<input>
				<port id="0">
					<dim>1</dim>
					<dim>128</dim>
				</port>
			</input>
			<output>
				<port id="3">
					<dim>1</dim>
					<dim>128</dim>
				</port>
			</output>
			<blobs>
				<weights offset="1625664" size="256"/>
				<biases offset="1625920" size="256"/>
			</blobs>
		</layer>
		<layer id="32" name="LeakyReLU_319" precision="FP16" type="ReLU">
			<data negative_slope="0.20000000298023224"/>
			<input>
				<port id="0">
					<dim>1</dim>
					<dim>128</dim>
				</port>
			</input>
			<output>
				<port id="1">
					<dim>1</dim>
					<dim>128</dim>
				</port>
			</output>
		</layer>
		<layer id="33" name="Mean_Prediction/dense_1/MatMul" precision="FP16" type="FullyConnected">
			<data out-size="64"/>
			<input>
				<port id="0">
					<dim>1</dim>
					<dim>128</dim>
				</port>
			</input>
			<output>
				<port id="2">
					<dim>1</dim>
					<dim>64</dim>
				</port>
			</output>
			<blobs>
				<weights offset="1626176" size="16384"/>
			</blobs>
		</layer>
		<layer id="34" name="Mean_Prediction/dense_1/BiasAdd" precision="FP16" type="ScaleShift">
			<input>
				<port id="0">
					<dim>1</dim>
					<dim>64</dim>
				</port>
			</input>
			<output>
				<port id="3">
					<dim>1</dim>
					<dim>64</dim>
				</port>
			</output>
			<blobs>
				<weights offset="80832" size="128"/>
				<biases offset="1642560" size="128"/>
			</blobs>
		</layer>
		<layer id="35" name="LeakyReLU_321" precision="FP16" type="ReLU">
			<data negative_slope="0.20000000298023224"/>
			<input>
				<port id="0">
					<dim>1</dim>
					<dim>64</dim>
				</port>
			</input>
			<output>
				<port id="1">
					<dim>1</dim>
					<dim>64</dim>
				</port>
			</output>
		</layer>
		<layer id="36" name="Mean_Prediction/dense_2/MatMul" precision="FP16" type="FullyConnected">
			<data out-size="32"/>
			<input>
				<port id="0">
					<dim>1</dim>
					<dim>64</dim>
				</port>
			</input>
			<output>
				<port id="2">
					<dim>1</dim>
					<dim>32</dim>
				</port>
			</output>
			<blobs>
				<weights offset="1642688" size="4096"/>
			</blobs>
		</layer>
		<layer id="37" name="Mean_Prediction/dense_2/BiasAdd" precision="FP16" type="ScaleShift">
			<input>
				<port id="0">
					<dim>1</dim>
					<dim>32</dim>
				</port>
			</input>
			<output>
				<port id="3">
					<dim>1</dim>
					<dim>32</dim>
				</port>
			</output>
			<blobs>
				<weights offset="4800" size="64"/>
				<biases offset="1646784" size="64"/>
			</blobs>
		</layer>
		<layer id="38" name="Mean_Prediction/dense_3/MatMul" precision="FP16" type="FullyConnected">
			<data out-size="4"/>
			<input>
				<port id="0">
					<dim>1</dim>
					<dim>32</dim>
				</port>
			</input>
			<output>
				<port id="2">
					<dim>1</dim>
					<dim>4</dim>
				</port>
			</output>
			<blobs>
				<weights offset="1646848" size="256"/>
			</blobs>
		</layer>
		<layer id="39" name="Mean_Prediction/dense_3/BiasAdd" precision="FP16" type="ScaleShift">
			<input>
				<port id="0">
					<dim>1</dim>
					<dim>4</dim>
				</port>
			</input>
			<output>
				<port id="3">
					<dim>1</dim>
					<dim>4</dim>
				</port>
			</output>
			<blobs>
				<weights offset="1647104" size="8"/>
				<biases offset="1647112" size="8"/>
			</blobs>
		</layer>
		<layer id="40" name="Variance_Prediction/dense/MatMul" precision="FP16" type="FullyConnected">
			<data out-size="128"/>
			<input>
				<port id="0">
					<dim>1</dim>
					<dim>5120</dim>
				</port>
			</input>
			<output>
				<port id="2">
					<dim>1</dim>
					<dim>128</dim>
				</port>
			</output>
			<blobs>
				<weights offset="1647120" size="1310720"/>
			</blobs>
		</layer>
		<layer id="41" name="Variance_Prediction/dense/BiasAdd" precision="FP16" type="ScaleShift">
			<input>
				<port id="0">
					<dim>1</dim>
					<dim>128</dim>
				</port>
			</input>
			<output>
				<port id="3">
					<dim>1</dim>
					<dim>128</dim>
				</port>
			</output>
			<blobs>
				<weights offset="1625664" size="256"/>
				<biases offset="2957840" size="256"/>
			</blobs>
		</layer>
		<layer id="42" name="LeakyReLU_322" precision="FP16" type="ReLU">
			<data negative_slope="0.20000000298023224"/>
			<input>
				<port id="0">
					<dim>1</dim>
					<dim>128</dim>
				</port>
			</input>
			<output>
				<port id="1">
					<dim>1</dim>
					<dim>128</dim>
				</port>
			</output>
		</layer>
		<layer id="43" name="Variance_Prediction/dense_1/MatMul" precision="FP16" type="FullyConnected">
			<data out-size="64"/>
			<input>
				<port id="0">
					<dim>1</dim>
					<dim>128</dim>
				</port>
			</input>
			<output>
				<port id="2">
					<dim>1</dim>
					<dim>64</dim>
				</port>
			</output>
			<blobs>
				<weights offset="2958096" size="16384"/>
			</blobs>
		</layer>
		<layer id="44" name="Variance_Prediction/dense_1/BiasAdd" precision="FP16" type="ScaleShift">
			<input>
				<port id="0">
					<dim>1</dim>
					<dim>64</dim>
				</port>
			</input>
			<output>
				<port id="3">
					<dim>1</dim>
					<dim>64</dim>
				</port>
			</output>
			<blobs>
				<weights offset="80832" size="128"/>
				<biases offset="2974480" size="128"/>
			</blobs>
		</layer>
		<layer id="45" name="LeakyReLU_" precision="FP16" type="ReLU">
			<data negative_slope="0.20000000298023224"/>
			<input>
				<port id="0">
					<dim>1</dim>
					<dim>64</dim>
				</port>
			</input>
			<output>
				<port id="1">
					<dim>1</dim>
					<dim>64</dim>
				</port>
			</output>
		</layer>
		<layer id="46" name="Variance_Prediction/dense_2/MatMul" precision="FP16" type="FullyConnected">
			<data out-size="32"/>
			<input>
				<port id="0">
					<dim>1</dim>
					<dim>64</dim>
				</port>
			</input>
			<output>
				<port id="2">
					<dim>1</dim>
					<dim>32</dim>
				</port>
			</output>
			<blobs>
				<weights offset="2974608" size="4096"/>
			</blobs>
		</layer>
		<layer id="47" name="Variance_Prediction/dense_2/BiasAdd" precision="FP16" type="ScaleShift">
			<input>
				<port id="0">
					<dim>1</dim>
					<dim>32</dim>
				</port>
			</input>
			<output>
				<port id="3">
					<dim>1</dim>
					<dim>32</dim>
				</port>
			</output>
			<blobs>
				<weights offset="4800" size="64"/>
				<biases offset="2978704" size="64"/>
			</blobs>
		</layer>
		<layer id="48" name="Variance_Prediction/dense_3/MatMul" precision="FP16" type="FullyConnected">
			<data out-size="4"/>
			<input>
				<port id="0">
					<dim>1</dim>
					<dim>32</dim>
				</port>
			</input>
			<output>
				<port id="2">
					<dim>1</dim>
					<dim>4</dim>
				</port>
			</output>
			<blobs>
				<weights offset="2978768" size="256"/>
			</blobs>
		</layer>
		<layer id="49" name="Variance_Prediction/dense_3/BiasAdd" precision="FP16" type="ScaleShift">
			<input>
				<port id="0">
					<dim>1</dim>
					<dim>4</dim>
				</port>
			</input>
			<output>
				<port id="3">
					<dim>1</dim>
					<dim>4</dim>
				</port>
			</output>
			<blobs>
				<weights offset="1647104" size="8"/>
				<biases offset="2979024" size="8"/>
			</blobs>
		</layer>
		<layer id="50" name="concat" precision="FP16" type="Concat">
			<data axis="1"/>
			<input>
				<port id="0">
					<dim>1</dim>
					<dim>4</dim>
				</port>
				<port id="1">
					<dim>1</dim>
					<dim>4</dim>
				</port>
			</input>
			<output>
				<port id="2">
					<dim>1</dim>
					<dim>8</dim>
				</port>
			</output>
		</layer>
	</layers>
	<edges>
		<edge from-layer="0" from-port="0" to-layer="1" to-port="0"/>
		<edge from-layer="1" from-port="2" to-layer="2" to-port="0"/>
		<edge from-layer="2" from-port="3" to-layer="3" to-port="0"/>
		<edge from-layer="3" from-port="1" to-layer="4" to-port="0"/>
		<edge from-layer="4" from-port="1" to-layer="5" to-port="0"/>
		<edge from-layer="5" from-port="2" to-layer="6" to-port="0"/>
		<edge from-layer="6" from-port="3" to-layer="7" to-port="0"/>
		<edge from-layer="7" from-port="2" to-layer="8" to-port="0"/>
		<edge from-layer="3" from-port="1" to-layer="9" to-port="0"/>
		<edge from-layer="9" from-port="2" to-layer="10" to-port="0"/>
		<edge from-layer="8" from-port="3" to-layer="11" to-port="0"/>
		<edge from-layer="10" from-port="3" to-layer="11" to-port="1"/>
		<edge from-layer="11" from-port="2" to-layer="12" to-port="0"/>
		<edge from-layer="12" from-port="1" to-layer="13" to-port="0"/>
		<edge from-layer="13" from-port="2" to-layer="14" to-port="0"/>
		<edge from-layer="14" from-port="3" to-layer="15" to-port="0"/>
		<edge from-layer="15" from-port="2" to-layer="16" to-port="0"/>
		<edge from-layer="11" from-port="2" to-layer="17" to-port="0"/>
		<edge from-layer="17" from-port="2" to-layer="18" to-port="0"/>
		<edge from-layer="16" from-port="3" to-layer="19" to-port="0"/>
		<edge from-layer="18" from-port="3" to-layer="19" to-port="1"/>
		<edge from-layer="19" from-port="2" to-layer="20" to-port="0"/>
		<edge from-layer="20" from-port="1" to-layer="21" to-port="0"/>
		<edge from-layer="21" from-port="2" to-layer="22" to-port="0"/>
		<edge from-layer="22" from-port="3" to-layer="23" to-port="0"/>
		<edge from-layer="23" from-port="2" to-layer="24" to-port="0"/>
		<edge from-layer="19" from-port="2" to-layer="25" to-port="0"/>
		<edge from-layer="25" from-port="2" to-layer="26" to-port="0"/>
		<edge from-layer="24" from-port="3" to-layer="27" to-port="0"/>
		<edge from-layer="26" from-port="3" to-layer="27" to-port="1"/>
		<edge from-layer="27" from-port="2" to-layer="28" to-port="0"/>
		<edge from-layer="28" from-port="1" to-layer="29" to-port="0"/>
		<edge from-layer="29" from-port="1" to-layer="30" to-port="0"/>
		<edge from-layer="30" from-port="2" to-layer="31" to-port="0"/>
		<edge from-layer="31" from-port="3" to-layer="32" to-port="0"/>
		<edge from-layer="32" from-port="1" to-layer="33" to-port="0"/>
		<edge from-layer="33" from-port="2" to-layer="34" to-port="0"/>
		<edge from-layer="34" from-port="3" to-layer="35" to-port="0"/>
		<edge from-layer="35" from-port="1" to-layer="36" to-port="0"/>
		<edge from-layer="36" from-port="2" to-layer="37" to-port="0"/>
		<edge from-layer="37" from-port="3" to-layer="38" to-port="0"/>
		<edge from-layer="38" from-port="2" to-layer="39" to-port="0"/>
		<edge from-layer="29" from-port="1" to-layer="40" to-port="0"/>
		<edge from-layer="40" from-port="2" to-layer="41" to-port="0"/>
		<edge from-layer="41" from-port="3" to-layer="42" to-port="0"/>
		<edge from-layer="42" from-port="1" to-layer="43" to-port="0"/>
		<edge from-layer="43" from-port="2" to-layer="44" to-port="0"/>
		<edge from-layer="44" from-port="3" to-layer="45" to-port="0"/>
		<edge from-layer="45" from-port="1" to-layer="46" to-port="0"/>
		<edge from-layer="46" from-port="2" to-layer="47" to-port="0"/>
		<edge from-layer="47" from-port="3" to-layer="48" to-port="0"/>
		<edge from-layer="48" from-port="2" to-layer="49" to-port="0"/>
		<edge from-layer="39" from-port="3" to-layer="50" to-port="0"/>
		<edge from-layer="49" from-port="3" to-layer="50" to-port="1"/>
	</edges>
	<meta_data>
		<MO_version value="1.4.292.6ef7232d"/>
		<cli_parameters>
			<data_type value="FP16"/>
			<disable_fusing value="True"/>
			<disable_gfusing value="False"/>
			<disable_nhwc_to_nchw value="False"/>
			<disable_resnet_optimization value="False"/>
			<extensions value="DIR"/>
			<framework value="tf"/>
			<generate_deprecated_IR_V2 value="False"/>
			<input_model value="DIR/frozen_graph.pb"/>
			<input_model_is_text value="False"/>
			<log_level value="ERROR"/>
			<mean_values value="()"/>
			<model_name value="optimized_graph_FP16"/>
			<move_to_preprocess value="False"/>
			<offload_unsupported_operations_to_tf value="False"/>
			<output_dir value="DIR"/>
			<reverse_input_channels value="False"/>
			<scale_values value="()"/>
			<silent value="False"/>
			<version value="False"/>
			<unset unset_cli_parameters="batch, finegrain_fusing, freeze_placeholder_with_value, input, input_checkpoint, input_meta_graph, input_shape, output, saved_model_dir, saved_model_tags, scale, tensorboard_logdir, tensorflow_custom_layer_libraries, tensorflow_custom_operations_config_update, tensorflow_object_detection_api_pipeline_config, tensorflow_operation_patterns, tensorflow_subgraph_patterns, tensorflow_use_custom_operations_config"/>
		</cli_parameters>
	</meta_data>
</net>
